subcellular_localization/notebook tutorial/params/CNN-LSTM-Attention_params.npz (npz, 79006 bytes, 64 tensors)

arr_0 f4 [10, 20, 3]
0	0x3eaa76db	0.33293805
1	0xbe0d4abc	-0.1379804
2	0xbf0c8aff	-0.5489959
3	0xbe0859c6	-0.13315496
4	0xbe7d3f3c	-0.24731153
5	0x3e854a5a	0.26033288
6	0x3e8f6940	0.28009987
7	0x3d3629b7	0.044473376
8	0x3e0bf2b1	0.13666798
9	0x3eaaa047	0.33325407
10	0x3c3f8d30	0.011691377
11	0xbc8252b3	-0.015908575
12	0x3e6d5981	0.23178674
13	0xbe3fa660	-0.18715811
14	0xbd354062	-0.044250853
15	0x3e78645c	0.24257034
16	0xbd208270	-0.039186895
17	0xbde4cd68	-0.11171991
18	0x3c755812	0.014974611
19	0xbe61c3a2	-0.22047284
20	0xbda7f826	-0.082016274
21	0xbe040086	-0.12890825
22	0xbc793bdc	-0.0152120255
23	0x3dded66e	0.10880743
24	0x3e97fb87	0.29684088
25	0xbe100c2a	-0.1406714
26	0x3e35c05f	0.17749165
27	0x3e020fe8	0.1270138
28	0xbc134954	-0.008989651
29	0xbe34d80d	-0.17660542
30	0x3d16ab46	0.036784433
31	0x3cccbf1a	0.024993468
32	0xbe4551b4	-0.19269449
33	0x3e8b9536	0.27262276
34	0xbe3ad0c3	-0.18243699
35	0xbeaf341e	-0.3421945
36	0x3def84d9	0.116952606
37	0x3f5c6d0d	0.861039
38	0x3f74f018	0.95678854
39	0x3ef4297d	0.47687903
40	0x3edd9d1e	0.43283933
41	0x3d2bc1b6	0.041932784
42	0x3e68d3cb	0.22737043
43	0xbe221e32	-0.15831831
44	0xbe8c8a00	-0.27449036
45	0x3dbd0756	0.09229915
46	0xbe9797ad	-0.29607907
47	0xbbd2ba48	-0.006430898
48	0x3de4a9c0	0.1116519
49	0xbe0143f0	-0.12623572
50	0xbeafa5af	-0.34306094
51	0xbd8b2919	-0.06794948
52	0x3dc1f478	0.09470457
53	0xbe1c4c4f	-0.15263484
54	0x3e96771a	0.29387742
55	0x3d4b17e8	0.049583346
56	0x3e116896	0.14200053
57	0x3d4f59cd	0.05062275
58	0xbe8036d8	-0.25041842
59	0xbcaf7c0b	-0.021421453
60	0xbea073c9	-0.31338337
61	0xba0df478	-0.0005415152
62	0xbe95d79a	-0.29266053
63	0xbeeb1084	-0.45911038
64	0xbc31a8b1	-0.010843442
65	0xbe50e21e	-0.20398757
66	0x3ecb5831	0.39715722
67	0x3e3c0206	0.18360147
68	0x3ea9ceac	0.3316549
69	0x3ea7081f	0.32623383
70	0x3d27e88f	0.04099327
71	0x3eefdf31	0.4684997
72	0xbd873ede	-0.06603788
73	0xbe59eb48	-0.21281159
74	0xbec6c99f	-0.388257
75	0x3ef0014f	0.46875998
76	0xbde21820	-0.11039758
77	0x3e27bdcc	0.16380996
78	0x3e917c40	0.28415108
79	0xbdf6c183	-0.12048628
80	0xbac1e1fc	-0.001479208
81	0x3e49e46c	0.19716042
82	0x3e2c5f93	0.16833334
83	0x3e8bee2d	0.2733015
84	0xbc0c2e16	-0.00855591
85	0x3e91c2e2	0.28468996
86	0x3eb0ce30	0.3453231
87	0x3e55ea55	0.20890172
88	0x3da771de	0.08176015
89	0xbcb62768	-0.022235587
90	0xbe52cf9b	-0.20587008
91	0xbe8b16e2	-0.27165896
92	0xbe939377	-0.28823444
93	0xbe654586	-0.22389802
94	0xbd355c46	-0.044277452
95	0xbe54759c	-0.2074799
96	0x3e606374	0.21912938
97	0x3e8a848b	0.27054247
98	0x3e3b9e4e	0.18322107
99	0x3dc24f58	0.0948779
100	0x3cc321d5	0.023819843
101	0xbe1b0c20	-0.15141344
102	0x3dcebce1	0.100946195
103	0x3d62b871	0.05535168
104	0x3df1e3a1	0.11810995
105	0xbb05d0b4	-0.0020418586
106	0x3e7b5bcf	0.24546741
107	0xbdd2ab93	-0.102866314
108	0x3e7253ea	0.23664823
109	0x3d5bd195	0.05366667
110	0xbdd44c1e	-0.10366081
111	0x3eb2d27d	0.34926215
112	0x3e463a69	0.19358219
113	0xbe88e983	-0.26740655
114	0xbd17bcea	-0.037045397
115	0xbd8c5bcf	-0.068534486
116	0xbe563045	-0.20916851
117	0x3d9408bb	0.07228228
118	0xbd8610c7	-0.06546169
119	0xbcd4bb25	-0.025968144
120	0xbe26f31c	-0.16303676
121	0xbe66d5c9	-0.2254249
122	0xbedd55cc	-0.4322952
123	0xbe462d18	-0.1935314
124	0xbc6d193b	-0.014471347
125	0xbd268915	-0.040658075
126	0xbe921495	-0.28531328
127	0xbdfff7bf	-0.12498426
128	0xb9857b7f	-0.0002545975
129	0xbe48b1f3	-0.19599132
130	0xbecd7272	-0.40126377
131	0x3e76c153	0.24097185
132	0xbe15a559	-0.14613856
133	0x3e86121f	0.261857
134	0x3e577369	0.21040119
135	0x3e5b17ac	0.21395749
136	0xbdd6da39	-0.104908414
137	0xbd70d2b7	-0.058794703
138	0xbddc9cab	-0.107720695
139	0xbebe32b0	-0.37148046
140	0x3d2c723c	0.04210113
141	0xbd80b5af	-0.062846534
142	0xbd1a7c79	-0.037716363
143	0xbe560194	-0.2089904
144	0x3db73fdf	0.08947729
145	0x3dd225be	0.10261105
146	0x3c9cef21	0.019156994
147	0xbbdb17a2	-0.006686167
148	0x3e8de336	0.2771241
149	0x3d3bbf9f	0.04583704
150	0xbd090005	-0.033447284
151	0x3e870fbe	0.26379198
152	0x3eab57fc	0.33465564
153	0xbe08eba6	-0.13371143
154	0xbe19a5d4	-0.15004665
155	0xbeada11e	-0.33911985
156	0xbe13e7fe	-0.14443967
157	0x3eeab848	0.4584372
158	0x3ecc8201	0.39942935
159	0x3da4d58a	0.08048542
160	0xbe8459bc	-0.25849712
161	0x3db29957	0.087206535
162	0x3e5accd9	0.21367206
163	0x3e7e0f36	0.2481049
164	0xbd1f9951	-0.038964573
165	0x3e0b32c0	0.13593578
166	0xbaaa55a7	-0.0012995497
167	0x3d9a5bbc	0.07537028
168	0x3e8e2d71	0.27769044
169	0xbdb547d3	-0.0885159
170	0x3e0e9805	0.13925178
171	0x3ea1ead2	0.31624466
172	0xbe3d03ac	-0.18458432
173	0xbd875aa3	-0.066090845
174	0xbdf427b8	-0.11921638
175	0x3e45338a	0.19257942
176	0xbe61d5cd	-0.22054215
177	0x3da6fff0	0.08154285
178	0xbda0a8b1	-0.07844675
179	0x3dc11b67	0.09429055
180	0x3e303604	0.17208105
181	0xbe8d1552	-0.2755533
182	0xbe779d17	-0.24181019
183	0xbdb3b505	-0.08774761
184	0xbda88064	-0.082276136
185	0x3e17131d	0.14753385
186	0x3da453f5	0.08023826
187	0x3e83d35d	0.25747195
188	0x3ec2a0e9	0.3801339
189	0x3e1ee7e3	0.15518145
190	0x3ed8b6c3	0.42326936
191	0x3e623dbc	0.22093862
192	0x3d950e75	0.07278148
193	0xbcf19e8f	-0.029494552
194	0x3b011cbc	0.0019700965
195	0xbb148e79	-0.0022667928
196	0x3e9a5368	0.3014176
197	0x3ea0d049	0.3140891
198	0xbe317db1	-0.17333104
199	0x3cf60492	0.030031476
200	0x3cec9e86	0.028884184
201	0x3d819f5c	0.063292235
202	0x3dd4a588	0.10383135
203	0xbe490db0	-0.19634128
204	0xbe416640	-0.18886662
205	0x3e828dd5	0.25498834
206	0xbc99fef5	-0.01879833
207	0xbcc84923	-0.024448937
208	0xbe2bd76e	-0.16781399
209	0x3cf0476e	0.029330935
210	0x3c53c067	0.01292429
211	0xbf035a0d	-0.5130928
212	0x3e254b2c	0.16141957
213	0x3ea5f843	0.3241597
214	0x3eceb80b	0.4037479
215	0xbd0bf286	-0.034166835
216	0x3e937215	0.28797975
217	0xbe3297bc	-0.17440695
218	0x3e836ac5	0.25667396
219	0x3e7dac94	0.24772865
220	0xbf127f26	-0.57225263
221	0xbbea672b	-0.007153412
222	0xbe9a2ca1	-0.30112174
223	0x3e79f040	0.24408054
224	0xbe76e66a	-0.24111333
225	0x3e66a083	0.22522168
226	0x3e96bae5	0.29439464
227	0x3e17017f	0.14746664
228	0xbe9d5912	-0.30732018
229	0x3d10df35	0.035369117
230	0xbe0b02aa	-0.13575235
231	0x3dc87cbf	0.097894184
232	0xbf01f7cd	-0.5076874
233	0x3dfd8461	0.12378765
234	0xbd0b5e43	-0.03402544
235	0xbe5ec775	-0.21755774
236	0xbe62fd05	-0.22166832
237	0xbe6e30f0	-0.23260856
238	0x3e7a740b	0.2445833
239	0xbd09abe5	-0.033611197
240	0xbe5278a1	-0.20553829
241	0x3c486c29	0.012232819
242	0x3d8f3a7e	0.069935784
243	0xbe75dc2d	-0.24009772
244	0xbe3f572f	-0.18685602
245	0xbe8f379d	-0.27972117
246	0x3e96ba71	0.29439119
247	0xbd54e873	-0.051979493
248	0x3e229d87	0.15880404
249	0xbda821a8	-0.082095444
250	0xbe3ee023	-0.18640189
251	0xbbb2a6ee	-0.0054520285
252	0x3dd71c82	0.10503484
253	0x3d574b5e	0.05256211
254	0xbd44b11c	-0.048020467
255	0x3e6c2161	0.23059608

arr_1 f4 [10]
0	0x3d36592a	0.044518627
1	0x3d4cc7f9	0.049995396
2	0xbb8db7a8	-0.004324872
3	0xbbdd77d2	-0.0067586685
4	0x3d360fd4	0.04444869
5	0x3c159d36	0.00913172
6	0x3cea49ee	0.028599706
7	0xba67af66	-0.0008838087
8	0x3d31d80d	0.043418933
9	0x3cf31165	0.02967138

arr_2 f4 [10, 20, 5]
0	0x3e5555e7	0.2083355
1	0x3dd4d0d2	0.10391392
2	0xbe20fc6b	-0.1572129
3	0xbe18b118	-0.14911306
4	0xbe5d73e3	-0.21626239
5	0xbe6891db	-0.2271189
6	0x3ce78533	0.028261757
7	0x3c8f79fc	0.017514221
8	0xbd73d81e	-0.059532277
9	0xbddbbd0c	-0.10729417
10	0x3de1de17	0.110286884
11	0x3e205eff	0.15661238
12	0x3b6119a8	0.0034347568
13	0xbd47fc49	-0.048824582
14	0xbe3d89e1	-0.18509628
15	0xbd1bbb90	-0.03802067
16	0x3e1a211c	0.15051693
17	0x3d7258be	0.059166662
18	0x3ddfa6b5	0.10920469
19	0x3e87e176	0.265392
20	0x3e5b23d3	0.21400385
21	0x3e766655	0.24062474
22	0x3e21edc8	0.15813363
23	0x3e8e99a0	0.27851582
24	0xbdbf0abe	-0.09328221
25	0xbd70130c	-0.058611915
26	0x3e07088d	0.13186856
27	0x3ea6087d	0.3242835
28	0x3cc63cfb	0.024199
29	0x3de54dc3	0.111964725
30	0xbe42b804	-0.19015509
31	0xbc35c082	-0.011093261
32	0x3d01c598	0.03168258
33	0x3ed319e4	0.4123069
34	0x3ed85da0	0.4225893
35	0x3ddcf79e	0.10789417
36	0x3e2025a4	0.15639359
37	0x36482700	2.9825023e-06
38	0xbd8238b1	-0.06358469
39	0xbe0a202b	-0.13488834
40	0x3dbab276	0.0911607
41	0x3e215bff	0.1575775
42	0x3e7e694c	0.24844855
43	0x3e5d2345	0.21595486
44	0x3ed82bd4	0.42220938
45	0xbe22f2f8	-0.15912998
46	0xbe3a7e15	-0.18212159
47	0xbdaed46b	-0.08536609
48	0xbcee2f16	-0.029075187
49	0xbe781a8a	-0.24228874
50	0xbd56c528	-0.052434117
51	0xbe7037de	-0.23458812
52	0x3dd7acd4	0.10531011
53	0xbe9188fc	-0.28424823
54	0xbe476627	-0.19472562
55	0x3d72fb05	0.059321422
56	0x3da7fc32	0.08202399
57	0x3e407124	0.1879316
58	0xbe06f296	-0.13178477
59	0x3e7cd2c6	0.24689779
60	0xbccc6e95	-0.024955073
61	0xbca91d23	-0.020643776
62	0xbeb020a3	-0.343999
63	0xbdd48abb	-0.10378023
64	0xbd029de9	-0.031888876
65	0xbe838de5	-0.25694194
66	0xbe89e098	-0.26929164
67	0xbebd48dc	-0.3696965
68	0xbe826f97	-0.2547576
69	0xbe01c495	-0.12672646
70	0xbd886961	-0.066607244
71	0xbe7aef2d	-0.24505301
72	0xbe4905e2	-0.1963115
73	0xbd902699	-0.07038612
74	0x3dbe71e9	0.092990704
75	0xbda01520	-0.07816529
76	0xbe39cd7a	-0.1814479
77	0xbd0fa009	-0.03506473
78	0x3e3fcd30	0.18730617
79	0x3d6366ae	0.055517845
80	0x3e02e980	0.12784386
81	0x3e21528c	0.15754145
82	0x3e3954a3	0.18098693
83	0x3d16c258	0.036806434
84	0x3cd5478c	0.026035093
85	0x3e5f5b3f	0.21812151
86	0x3dcad331	0.09903563
87	0xbdea11c5	-0.114291705
88	0xbe241ac6	-0.16025838
89	0x3ceaca26	0.028660845
90	0x3e2e9496	0.17048869
91	0x3da463c7	0.080268435
92	0x3de74513	0.11292472
93	0xbb121528	-0.0022290442
94	0xbe823d90	-0.25437593
95	0x3e28d432	0.16487196
96	0xbbdd032b	-0.0067447624
97	0xbe337f11	-0.1752894
98	0x3e54e75e	0.20791385
99	0x3e3d4f2b	0.18487231
100	0xbdbb21dd	-0.09137318
101	0x3e9471e2	0.28993136
102	0xbc875918	-0.016521975
103	0xbd5ffe2c	-0.054685757
104	0xbe9c1df5	-0.30491605
105	0xbe980f33	-0.29699096
106	0xbea381e4	-0.31935036
107	0xbe5203f1	-0.20509316
108	0xbeaf9b69	-0.34298256
109	0xbe9bf2bf	-0.30458638
110	0xbd029725	-0.031882424
111	0x3e090f14	0.13384658
112	0x3e4ddfd2	0.20104912
113	0xbe368620	-0.17824602
114	0x3d92f173	0.07174959
115	0x3eb3e7bf	0.35137746
116	0x3c99b4f3	0.018763041
117	0x3edb7150	0.42859888
118	0x3e41cadf	0.18925045
119	0x3d93876b	0.07203563
120	0x3e86700e	0.26257366
121	0x3e35948a	0.17732444
122	0x3e1655f8	0.14681232
123	0x3e5765cf	0.2103493
124	0x3e0f8fcc	0.14019698
125	0xbd2f57e1	-0.042808417
126	0xbdd4c78f	-0.10389625
127	0x3d152f65	0.036422152
128	0x3dc08674	0.09400645
129	0x3d37cc7c	0.044872746
130	0x3e78a7a9	0.24282707
131	0xbe59d60f	-0.21273063
132	0x3e881883	0.265812
133	0x3e80db24	0.2516719
134	0x3e39eb51	0.18156172
135	0xbe0b1e07	-0.13585673
136	0x3ec7a17d	0.38990393
137	0xbd5ccf89	-0.05390886
138	0x3d9fe134	0.07806626
139	0xbe3dc06a	-0.18530431
140	0x3e5e6116	0.21716723
141	0x3c5d649b	0.013512756
142	0x3da25ad7	0.079274826
143	0x3d6ef215	0.058336336
144	0x3e7340f8	0.23755252
145	0x3d0bd867	0.034141924
146	0x3e494ff8	0.19659412
147	0xbe3bc641	-0.18337347
148	0xbcd109fe	-0.02551746
149	0x3e872401	0.26394656
150	0x3db019d5	0.08598677
151	0x3d872fee	0.06600939
152	0x3e1053da	0.14094487
153	0x3d24a055	0.040191967
154	0x3d9dd8f9	0.077074
155	0xbe3521a3	-0.17688613
156	0xbe11100a	-0.14166275
157	0xbc8bb5a5	-0.017054388
158	0xbd00def2	-0.031462617
159	0x3e7282f7	0.23682772
160	0xbc8c60ba	-0.017135967
161	0xbd6a73cb	-0.057239335
162	0x3c0428a9	0.008066335
163	0xbea70ad2	-0.32625443
164	0xbe738e75	-0.23784812
165	0xbd1c6bd9	-0.03818879
166	0x3d689f7a	0.056792714
167	0x3c7e5db0	0.0155252665
168	0x3bf6c4b7	0.0075307745
169	0x3e16e331	0.14735104
170	0x3d9d82a7	0.076909356
171	0xbdfe0b6b	-0.124045216
172	0xbdbba363	-0.09162023
173	0x3e42e752	0.19033554
174	0x3e7a5a33	0.24448471
175	0xbf01c8ad	-0.5069683
176	0xbe36e044	-0.17858988
177	0xbecc036b	-0.39846358
178	0xbe03a9c0	-0.12857723
179	0xbecdbf1e	-0.40184873
180	0xbe1d66f6	-0.15371308
181	0x3df64512	0.12024893
182	0x3e8624c9	0.2619994
183	0xbdf9aa4b	-0.12190684
184	0x3cfe1d55	0.031019846
185	0x3d68dfc8	0.05685404
186	0x3ebcf114	0.36902678
187	0x3e5a8530	0.2133987
188	0x3e8a46dd	0.2700719
189	0x3ea5088d	0.32233086
190	0x3e3a63df	0.1820216
191	0x3d7a9c70	0.061184347
192	0xbc6cd4c2	-0.014455022
193	0x3ea4100e	0.320435
194	0x3e8f7aa4	0.28023255
195	0x3e8b9132	0.27259213
196	0x3e8357ef	0.25653026
197	0x3d809e04	0.06280139
198	0x3dba9f53	0.0911242
199	0x3e099214	0.1343463
200	0x3e6bf327	0.23041974
201	0x3e48fee9	0.1962849
202	0xbd941bff	-0.07231902
203	0xbe9c37f3	-0.30511436
204	0xbdb46a5d	-0.0880935
205	0x3d9ca3e9	0.07648451
206	0xbe0b9f74	-0.13635045
207	0xbe14e932	-0.14542082
208	0xbe4c2420	-0.19935656
209	0xbee54b3b	-0.4478396
210	0x3c5549d9	0.013018095
211	0x3d921d13	0.07134452
212	0xbd169d53	-0.03677113
213	0x3e115f8a	0.14196602
214	0x3cebaa7b	0.028767815
215	0xbde5f59c	-0.11228487
216	0x3d35beda	0.044371463
217	0x3da03f90	0.078246236
218	0x3deb36fd	0.114850976
219	0xbe6d641b	-0.23182718
220	0x3e6217df	0.22079419
221	0x3e9234f2	0.2855602
222	0xbcc307f0	-0.023807496
223	0x3ed6082e	0.41803116
224	0x3e32616b	0.17419975
225	0xbae41b5d	-0.0017403174
226	0x3ea57be5	0.32321087
227	0xbd22d5e0	-0.03975475
228	0x3cf167ab	0.029468378
229	0xbcf27e25	-0.029601166
230	0x3a2fef6a	0.00067113957
231	0xbdd7c675	-0.105358995
232	0x3e1d0181	0.15332605
233	0xbc39ac35	-0.011332561
234	0xbddd4ecc	-0.10806045
235	0x3db67f98	0.08911055
236	0x3d9f3031	0.07772864
237	0xbdef8076	-0.11694424
238	0xbd02c8df	-0.031929847
239	0xbd5d7b64	-0.054072753
240	0xbcda83a2	-0.026674096
241	0x3e15f7ff	0.14645384
242	0x3d978703	0.07398798
243	0x3dc99bf8	0.09844202
244	0xbdf59547	-0.11991363
245	0xbe96c71f	-0.29448792
246	0xbe6e242d	-0.23255987
247	0xbe169099	-0.14703597
248	0xbed5bb2a	-0.41744357
249	0x3d74d3fb	0.059772473
250	0xbe16d85d	-0.14730974
251	0x3de0c6ae	0.10975395
252	0x3dca71d1	0.0988499
253	0x3e7142fa	0.23560706
254	0xbdf67fe4	-0.12036112
255	0x3d5b41ab	0.053529423

arr_3 f4 [10]
0	0xbb9b083f	-0.0047312076
1	0x3ce5868e	0.028018262
2	0x3d87d61a	0.066326335
3	0x3d322be1	0.043498877
4	0x3d0157ed	0.031577993
5	0x3c2846b1	0.01027076
6	0x3b62d8f0	0.0034614168
7	0x3c5bcd3e	0.013415633
8	0x3d17cf0c	0.03706269
9	0xbc0abd22	-0.008467944

arr_4 f4 [20, 20, 3]
0	0xbeca4881	-0.3950844
1	0x3d30eb87	0.043193366
2	0xbcdd396c	-0.02700492
3	0xbe489fe0	-0.19592237
4	0xbe0f1b9c	-0.13975376
5	0x3e19ee56	0.15032324
6	0xbe12324b	-0.14276998
7	0xbdbcea85	-0.092244186
8	0x3e8d6911	0.27619222
9	0xbdeb147c	-0.114785165
10	0xbe54c335	-0.2077759
11	0xbe1f3d3d	-0.15550704
12	0xbd578a52	-0.052622147
13	0xbd456d6e	-0.048200063
14	0x3e735be9	0.2376553
15	0xbb19b6e6	-0.0023454963
16	0xbe57fc95	-0.21092446
17	0xbc2ef80d	-0.010679257
18	0x3df50251	0.119633324
19	0x3d5d8015	0.054077227
20	0x3e514c28	0.20439208
21	0x3e5ad1b9	0.21369065
22	0x3e82c980	0.25544357
23	0x3e82dc7c	0.2555884
24	0x3d4448f6	0.047921143
25	0xb92c1450	-0.00016410765
26	0x3d414f2c	0.047194645
27	0xbd92d0f2	-0.071687594
28	0xbd9e48ea	-0.07728751
29	0x3e8ee814	0.27911437
30	0x3d9ce807	0.07661443
31	0xbc2bf5af	-0.010495587
32	0xbdb1b184	-0.086764365
33	0x3e185442	0.14875892
34	0x3dfdf746	0.12400679
35	0x3e663170	0.22479796
36	0xbc4b783d	-0.012418804
37	0x3ebde552	0.3708902
38	0x3f0f499d	0.559717
39	0xbda08f28	-0.07839805
40	0xbe6e8fff	-0.23297118
41	0x3dc208d5	0.09474341
42	0x3e2c467a	0.1682376
43	0x3ebe4278	0.37160087
44	0x3eca6511	0.39530233
45	0x3decba33	0.11558952
46	0x3e10c922	0.14139226
47	0x3eb6a7c5	0.35674873
48	0x3e2c33a4	0.16816574
49	0x3e3903c6	0.18067846
50	0xbdc8c7f1	-0.09803761
51	0xbd504f0f	-0.050856646
52	0xbeb85001	-0.35998538
53	0xbe6a09fe	-0.22855374
54	0xbe17c49e	-0.14821097
55	0x3d229809	0.039695773
56	0xbdba6c44	-0.09102681
57	0xbe500da3	-0.20317702
58	0xbe8c1a3b	-0.27363762
59	0x3cb199f5	0.021679858
60	0x3e5584fe	0.20851514
61	0x3e9952a5	0.29945865
62	0x3e8d7780	0.27630234
63	0xbcae6528	-0.02128847
64	0xbd7879c5	-0.060663003
65	0xbe4cf78d	-0.20016308
66	0x3dca278f	0.098708265
67	0x3c0efb70	0.00872694
68	0x3d0cfefe	0.034422867
69	0x3e27db41	0.16392232
70	0x3c0f4fd4	0.00874706
71	0xbe9200e9	-0.2851632
72	0xbec62822	-0.38702494
73	0xbea2e6bf	-0.3181667
74	0xbed2e217	-0.41188118
75	0xbe068a2c	-0.13138646
76	0xbd96d843	-0.073654674
77	0x3cc1c510	0.023653537
78	0x3dd8fb41	0.10594798
79	0x3e289519	0.16463126
80	0x3e560803	0.20901494
81	0x3cfaea2e	0.030629244
82	0xbeb6a2e7	-0.3567116
83	0x3d7359da	0.05941186
84	0xbd67bc63	-0.056576144
85	0x3e39c8b9	0.18142976
86	0xbd84f309	-0.06491668
87	0x3dbd1137	0.09231799
88	0x3da963ec	0.08271012
89	0x3e8ddf76	0.2770955
90	0xbcdf4577	-0.027254803
91	0xbea03763	-0.31292257
92	0xbe05d610	-0.1306994
93	0xbe9fddca	-0.312239
94	0xbe69323f	-0.22773074
95	0xbe4febd9	-0.20304812
96	0xbe0d8ab6	-0.13822445
97	0x3e00c675	0.12575705
98	0x3ec95561	0.3932295
99	0x3e6e0d3a	0.23247233
100	0x3e816a34	0.2527634
101	0x3e21aed2	0.15789345
102	0x3e5e116f	0.21686338
103	0xbd6143ff	-0.054996487
104	0xbdcaf9ee	-0.099109516
105	0xbd26d5fa	-0.040731408
106	0x3e244100	0.1604042
107	0xbdf313f2	-0.11869039
108	0xbe770514	-0.24123031
109	0xbdfbb635	-0.122906126
110	0x3e2cf713	0.16891126
111	0x3bda14f8	0.0066553317
112	0xbdc82f89	-0.097746916
113	0x3cd47b9e	0.025937852
114	0x3e970ab2	0.29500347
115	0x3e958814	0.29205382
116	0xbdf847f3	-0.12123098
117	0xbe0879d1	-0.1332772
118	0xbd805f86	-0.0626822
119	0x3e05cf7e	0.13067433
120	0x3df52219	0.11969394
121	0x3e9f1dd1	0.31077436
122	0x3e9af3b5	0.3026406
123	0x3e2ee9f7	0.17081438
124	0x3e1132df	0.14179562
125	0x3e2ba092	0.16760471
126	0x3d214448	0.03937176
127	0x3e151daf	0.14562105
128	0xbdf0888b	-0.117447935
129	0xbdea5136	-0.11441271
130	0xbe088da6	-0.13335285
131	0x3de638c6	0.112412974
132	0x3d8e530d	0.069494344
133	0xbc1cc79c	-0.009569075
134	0xbdce893b	-0.100847684
135	0x3cc7273c	0.0243107
136	0x3ea0410b	0.31299624
137	0x3dfa93c3	0.122352146
138	0x3cc5f3cc	0.024164103
139	0x3dfe9c06	0.12432103
140	0x3db07758	0.08616513
141	0x3d2e5b45	0.04256751
142	0xbda222f5	-0.07916824
143	0x3e33c08b	0.17553918
144	0x3de6e90e	0.112749204
145	0x3e6e1d5d	0.23253389
146	0x3cfeed62	0.031119052
147	0xbe33609a	-0.1751732
148	0x3e5372d4	0.20649272
149	0xb880b710	-6.137614e-05
150	0xbca7c147	-0.020477904
151	0x3e2f92da	0.17145863
152	0x3e3f82c7	0.18702231
153	0xbda76713	-0.08173957
154	0xbdd719d1	-0.10502971
155	0xbe0116a7	-0.12606297
156	0x3e9242fc	0.2856673
157	0x3f0e4314	0.55571103
158	0x3f183448	0.59454775
159	0xbde3c9ea	-0.111224964
160	0xbe8b37c4	-0.27190983
161	0x3da87470	0.08225334
162	0x3f01b71b	0.5067002
163	0x3d64eec6	0.055891775
164	0x3dee7a3b	0.11644407
165	0x3ebf7f60	0.37401867
166	0x3ebf1f1d	0.37328425
167	0x3e40f45e	0.18843219
168	0xbbc528a2	-0.0060168067
169	0xbdb80910	-0.089861035
170	0xbda68cfa	-0.08132358
171	0x3d4a9cff	0.04946613
172	0xbe4650d0	-0.19366765
173	0xbe841130	-0.25794363
174	0x3e8b2c3b	0.27182183
175	0x3eaa49b6	0.33259362
176	0x3dccd497	0.10001486
177	0xbdaec7f2	-0.0853423
178	0x3e236e67	0.15960084
179	0xbd5ebc36	-0.05437871
180	0xbd74dad9	-0.059779022
181	0xbc9e6082	-0.019333128
182	0xbd7c21be	-0.061555617
183	0x3e0e5555	0.13899739
184	0x3dd45aed	0.10368905
185	0x3c49a133	0.012306499
186	0xbe4234a3	-0.18965392
187	0xbe98cba7	-0.29842874
188	0xbe41c3f9	-0.18922414
189	0x3e769f70	0.24084258
190	0x3e43179a	0.19051972
191	0xbe169e31	-0.14708783
192	0x3e292bc4	0.16520602
193	0x3d8266fc	0.06367299
194	0x39dea1a2	0.00042463565
195	0x3d8bef9b	0.068328105
196	0xbd45f3c3	-0.048328172
197	0x3ea15bda	0.3151539
198	0x3e290e63	0.16509394
199	0x3e50dbee	0.20396397
200	0x3d8047fa	0.062637284
201	0x3e767b34	0.24070436
202	0x3df2033b	0.118170224
203	0x3e7aa7a6	0.24478015
204	0xbe92da7d	-0.28682318
205	0xbe8d818f	-0.27637908
206	0xbe966f9c	-0.29382026
207	0xbe76d712	-0.2410548
208	0xbdbfde55	-0.09368578
209	0xbea7e64e	-0.32792896
210	0xbd282beb	-0.04105751
211	0x3e895dff	0.26829526
212	0x3c16528c	0.009174954
213	0x3e8d3d37	0.27585766
214	0x3d3bcb79	0.045848344
215	0x3e81f11d	0.25379267
216	0xbe7558d8	-0.23959672
217	0xbec3b1e4	-0.38221657
218	0xbe3db437	-0.18525778
219	0xbe5ae123	-0.21374945
220	0x3e0f09c6	0.13968572
221	0x3dbb0651	0.09132064
222	0xbe260c06	-0.16215524
223	0xbe106ef7	-0.1410483
224	0xbe5f721f	-0.21820877
225	0xbe4f5082	-0.20245555
226	0xbe443504	-0.19160849
227	0xbbdd754a	-0.0067583667
228	0x3e516c66	0.20451507
229	0x3e53adfc	0.20671839
230	0x3dbfddb3	0.09368458
231	0xbdb2cee1	-0.08730865
232	0x3e6918ba	0.22763339
233	0x3d983996	0.07432859
234	0xbe864edf	-0.2623205
235	0xbd45de81	-0.0483079
236	0xbe53c549	-0.20680727
237	0xbdc6e081	-0.097107895
238	0x3e0947a3	0.13406233
239	0x3e21acb2	0.15788534
240	0xbb8f02f8	-0.0043643676
241	0x3e653029	0.22381653
242	0xbe20f7ac	-0.1571948
243	0x3e66fb0b	0.22556703
244	0x3eb24672	0.3481937
245	0x3e86e1c5	0.26344123
246	0xbe0d455a	-0.13795987
247	0x3c4438b2	0.011976408
248	0x3c292aa7	0.0103251105
249	0xbdf6c1e2	-0.12048699
250	0xbe1b1f4f	-0.15148662
251	0x3e820fae	0.25402588
252	0x3e24336b	0.1603524
253	0x3ec2c081	0.38037494
254	0x3e1db71c	0.15401882
255	0x3e08472c	0.133084

arr_5 f4 [20]
0	0xbd717bdb	-0.05895601
1	0x3d581322	0.05275262
2	0xbd0175a7	-0.031606343
3	0x3d288ba5	0.0411488
4	0x3d303c8e	0.0430265
5	0x3cc9c54d	0.024630213
6	0x3d993c2a	0.074821785
7	0xbbe0f179	-0.0068647233
8	0x3da67b16	0.081289455
9	0xbd65756d	-0.05602019
10	0xb8729660	-5.7837344e-05
11	0x3b034d1c	0.0020034974
12	0x3dd40f37	0.103544645
13	0xbbac9135	-0.0052663335
14	0x3c4b8af9	0.01242327
15	0x3cff6dcc	0.031180285
16	0x3db4dadf	0.08830809
17	0x3c8f8875	0.017521122
18	0xbbb9c6c7	-0.005669448
19	0xbc060127	-0.008178986

arr_6 f4 [20, 15]
0	0x3eac7ba0	0.33688068
1	0x3f2c4c37	0.67303795
2	0x3d39ada0	0.045331597
3	0x3edb8049	0.4287131
4	0x3f17be9d	0.5927523
5	0x3e4bad19	0.1989025
6	0x3ed1ee76	0.41002244
7	0x3ee5722e	0.44813675
8	0x3efc15fb	0.4923552
9	0x3ebd269a	0.36943513
10	0x3e6159d1	0.22006918
11	0x3e9219c6	0.2853529
12	0x3ece81d3	0.40333423
13	0x3dce27e4	0.10066202
14	0x3e9a6ede	0.3016271
15	0x3e60949a	0.21931687
16	0xbe7a568f	-0.24447082
17	0xbe87b944	-0.26508534
18	0xbe4134f6	-0.18867859
19	0x3d8283cb	0.06372794
20	0x3e1ba167	0.15198289
21	0x3d358fda	0.04432664
22	0x3e55af67	0.20867692
23	0xbdf8581c	-0.121261805
24	0xbd966b64	-0.07344702
25	0x3dd56a60	0.1042068
26	0x3d9a7d40	0.07543421
27	0x3e8e11bd	0.27747908
28	0xbe084b53	-0.13309984
29	0x3e4be605	0.19911964
30	0x3e0a3d42	0.1349993
31	0x3ed45425	0.41470447
32	0xbd8695c5	-0.06571535
33	0x3da7b088	0.081879675
34	0x3d4b7ac3	0.04967762
35	0xbd98dfc9	-0.07464559
36	0x3f004f01	0.5012055
37	0x3dfcb86f	0.123398654
38	0x3d97a6f6	0.07404892
39	0xbdd47b92	-0.10375132
40	0x3e088ca8	0.13334906
41	0x3da89839	0.08232159
42	0x3ed1e707	0.40996572
43	0x3d24a883	0.040199768
44	0x3b822415	0.0039715865
45	0xbca5f4a6	-0.020258259
46	0x3ebf4593	0.37357768
47	0x3e30a966	0.1725212
48	0xbe685dcb	-0.22692029
49	0xbe8457d5	-0.2584826
50	0x3ea59f64	0.32348168
51	0x3e15c848	0.14627182
52	0x3e170fd8	0.14752138
53	0x3e13b8ea	0.14426008
54	0xbde182b2	-0.11011256
55	0xbc8e9b01	-0.017407896
56	0xbd23e273	-0.04001088
57	0x3e5fb2ca	0.21845546
58	0x3d4607fb	0.048347455
59	0xbe1cea18	-0.15323675
60	0x3d99afa9	0.07504208
61	0x3ef4ee05	0.47837844
62	0x3e775e5c	0.24157089
63	0xbbcb36cc	-0.0062016007
64	0xbe8ae920	-0.27130985
65	0xbda7edc2	-0.081996456
66	0x3db072ea	0.08615668
67	0x3bd61b56	0.0065340204
68	0x3e0f0e79	0.13970365
69	0xbed2acee	-0.4114756
70	0x3e96cc79	0.29452875
71	0xbd082765	-0.033240695
72	0x3da2e761	0.07954288
73	0x3e24357d	0.16036029
74	0xbe3aaab5	-0.18229182
75	0x3cc68259	0.024232076
76	0x3ed4c7c7	0.41558668
77	0x3e9adf90	0.3024869
78	0x3df3ec4e	0.11910306
79	0x3ddc0ae3	0.10744264
80	0x3e922132	0.2854095
81	0xbe5e0b63	-0.21684031
82	0x3ea56dd2	0.3231035
83	0x3cc8f894	0.024532594
84	0xbe4336d7	-0.19063888
85	0x3e0ecc84	0.13945204
86	0xbcdc8bd9	-0.026922153
87	0xbcf1b13a	-0.029503454
88	0x3e7d467b	0.24733917
89	0x3dc0214d	0.093813516
90	0x3d41a4de	0.04727637
91	0x3e5107a8	0.20413077
92	0x3df9a4df	0.1218965
93	0xbe410226	-0.18848476
94	0xbdf1ea5f	-0.11812281
95	0xbe6aee1d	-0.22942396
96	0x3eb36f3a	0.35045797
97	0x3ea72d7b	0.32651886
98	0x3daaa237	0.08331721
99	0xbec1478b	-0.37749895
100	0x3e8c2ea7	0.27379343
101	0x3dcfe4a2	0.1015103
102	0x3ec295b9	0.38004854
103	0x3e8a1821	0.26971534
104	0x3e06d088	0.13165486
105	0x3e3224c2	0.17396834
106	0xbd2bbd9d	-0.041928876
107	0xbc8d462e	-0.017245378
108	0xbdceb5b2	-0.100932494
109	0x3ded5f0c	0.115903944
110	0x3e8b8446	0.27249354
111	0x3d563a6b	0.052301805
112	0x3dc3524b	0.095371805
113	0xbd0f3d05	-0.034970302
114	0x3d72da1c	0.059290037
115	0x3e79a466	0.2437912
116	0x3dc8df9f	0.09808277
117	0x3ebc34e9	0.36759117
118	0xbdfd6dc5	-0.123744525
119	0xbd536969	-0.0516142
120	0x3df67798	0.120345294
121	0xbe3add20	-0.18248415
122	0x3d7ca78f	0.061683234
123	0xbe6e643e	-0.23280427
124	0x3e9cac3b	0.3060015
125	0x3f0051af	0.5012464
126	0xbf21ac6c	-0.6315372
127	0xbdbb86f0	-0.09156597
128	0xbe0109c2	-0.12601379
129	0x3ed26cb4	0.4109856
130	0x3e1f5a73	0.15561847
131	0x3e434dce	0.19072649
132	0xbdb1eaea	-0.086873844
133	0xbcf893db	-0.03034394
134	0x3f1802c0	0.59379196
135	0x3d58ee13	0.05296142
136	0x3f3eefff	0.74584955
137	0x3dcdace5	0.10042743
138	0x3e7541e1	0.23950912
139	0x3e30a2c4	0.1724959
140	0xbed650a9	-0.41858414
141	0x3e5fbcdd	0.2184939
142	0x3eb17d5e	0.3466596
143	0x3e33533c	0.1751222
144	0x3dc23bd9	0.09484071
145	0x3ca91fd0	0.020645052
146	0x3eeb7eba	0.45995122
147	0x3e2990e6	0.1655918
148	0xbdc395c4	-0.0955005
149	0x3cfc6644	0.030810483
150	0xbd047409	-0.032337222
151	0x3e0b06ff	0.13576888
152	0xbe0a18d0	-0.13486028
153	0xbdc58333	-0.09644165
154	0x3e924ee4	0.28575814
155	0x3e5fc666	0.21853027
156	0x3d93bbff	0.07213592
157	0x3d06c697	0.032904234
158	0x3ce3f5d6	0.027827185
159	0xbdd9ea1d	-0.10640357
160	0x3e9a1e0f	0.30101058
161	0x3e937ccb	0.28806147
162	0x3e6e2836	0.23257527
163	0xbcce772e	-0.025203314
164	0xb932921c	-0.00017029833
165	0x3d71a528	0.058995396
166	0x3eb02199	0.34400633
167	0x3dcfb2bb	0.10141512
168	0xbe8652a6	-0.2623493
169	0x3defcc84	0.1170893
170	0xbe4d0122	-0.20019963
171	0x3eb2beea	0.3491128
172	0x3ea67050	0.32507563
173	0xbd3f0db7	-0.04664394
174	0xbea042cc	-0.31300962
175	0xbce6f2d2	-0.028191958
176	0x3e867110	0.26258135
177	0x3e870d25	0.26377216
178	0x3ec05756	0.37566632
179	0x3e20ccfd	0.15703197
180	0x3e9717e9	0.2951043
181	0x3de6191b	0.11235257
182	0x3c7e4f3f	0.015521823
183	0xbe2f7d0f	-0.1713755
184	0x3dea079d	0.11427233
185	0x3ef47ce2	0.47751528
186	0xbd1edd25	-0.03878512
187	0xbdae0998	-0.084979236
188	0x3d61a05c	0.05508457
189	0x3e25bc80	0.16185188
190	0x3c836ae7	0.016042186
191	0x3c53afdd	0.012920347
192	0x3e8c4a74	0.27400553
193	0xbe173e07	-0.14769755
194	0xbe18a656	-0.14907202
195	0xbd5d6f45	-0.054061193
196	0x3ea9888c	0.3311199
197	0x3d502724	0.050818577
198	0xbd78a7b9	-0.060706828
199	0xbca91e44	-0.020644315
200	0xbe2dcb7e	-0.16972157
201	0x3e189b60	0.14903021
202	0x3dd54713	0.10413947
203	0x3d7ac207	0.061220195
204	0xbdc4a87f	-0.096024506
205	0x3e064a0f	0.13114189
206	0x3e353c3a	0.17698756
207	0x3ea6ad59	0.3255413
208	0x3e5d124e	0.21589014
209	0x3d9a2f4a	0.07528551
210	0x3d0dc729	0.034613762
211	0x3ef154b0	0.47134924
212	0x3e0a5cc0	0.13511944
213	0x3d80eeb9	0.06295533
214	0xbf13046d	-0.5742863
215	0xbd789e08	-0.060697585
216	0x3e913b0f	0.2836537
217	0x3e5c0812	0.21487454
218	0x3cf271a7	0.02959521
219	0xbe83dfa5	-0.25756565
220	0x3d95b4e7	0.07309895
221	0xbe8e359a	-0.2777527
222	0xbdee2f54	-0.11630121
223	0x3ed75aee	0.4206156
224	0xbeac8f53	-0.33703098
225	0xbe069c33	-0.13145523
226	0xbb244680	-0.0025066435
227	0x3dbe19e1	0.0928228
228	0x3c3a4028	0.011367835
229	0xbe255844	-0.16146952
230	0xbda2d9c0	-0.07951689
231	0xbe305fbc	-0.1722402
232	0x3d25a407	0.04043963
233	0x3d45c02c	0.048278973
234	0xbc057fd9	-0.008148157
235	0xbcae723e	-0.02129471
236	0xbe4c2085	-0.1993428
237	0xbdb647f3	-0.08900442
238	0x3bebc9e7	0.0071956995
239	0x3de310fb	0.11087223
240	0x3e109689	0.14119925
241	0xbdf07569	-0.11741144
242	0xbd36d9c1	-0.04464126
243	0xbe79c917	-0.24393116
244	0x3d3fab97	0.0467945
245	0x3e5784d8	0.2104677
246	0x3daab220	0.08334756
247	0x3cffa5d2	0.031206999
248	0x3c78038a	0.0151375625
249	0xbe408d4d	-0.18803902
250	0x3e8c185b	0.27362332
251	0x3e329236	0.17438588
252	0x3e263136	0.1622971
253	0x3d2d11bb	0.042253237
254	0xbe2d5cdb	-0.16929953
255	0xbe4a323f	-0.1974573

arr_7 f4 [15, 15]
0	0xbd2334bb	-0.03984521
1	0x3eda1c8b	0.42599902
2	0xbc8b82a8	-0.017030075
3	0xbd899ba5	-0.0671914
4	0x3e50070c	0.20315188
5	0x3e8a8a48	0.27058625
6	0x3da5cbb5	0.08095495
7	0x3c97b21f	0.018517552
8	0x3df4e948	0.11958557
9	0x3e5a3165	0.21307905
10	0x3da74695	0.08167759
11	0x3d02d1b9	0.03193829
12	0xbca4ec03	-0.02013207
13	0xbd8c089d	-0.0683758
14	0x3d694f4f	0.0569604
15	0xbd95305f	-0.07284617
16	0xbe65faaa	-0.22458902
17	0xbe08533f	-0.13313006
18	0xbe995da7	-0.29954264
19	0x3e8488a9	0.25885513
20	0xbe419844	-0.18905741
21	0x3dd9ca40	0.10634279
22	0xbdfb206a	-0.12262042
23	0x3d228487	0.03967717
24	0xbe3e088d	-0.1855795
25	0xbd2f7cde	-0.042843692
26	0xbe875f36	-0.26439828
27	0x3e17c417	0.14820896
28	0xbe00e5c3	-0.12587647
29	0x3ccd9ca9	0.025099115
30	0xbe5488c8	-0.20755303
31	0xbb5c43d7	-0.0033609772
32	0xbe1fb6cd	-0.15597077
33	0x3d48c9db	0.04902063
34	0xbdf0265c	-0.117260665
35	0xbde0f6ef	-0.10984599
36	0xbe6af789	-0.2294599
37	0x3e15a411	0.14613368
38	0x3d6f2cf6	0.058392487
39	0xbe74ad97	-0.23894344
40	0xbd3e0055	-0.046387035
41	0xbe4508a5	-0.19241579
42	0x3e6450ee	0.22296497
43	0x3d4e37ad	0.050346065
44	0xbd5c2af6	-0.05375191
45	0xbebceaf3	-0.36898002
46	0xbe1136a2	-0.14180997
47	0xbc62d97e	-0.0138457995
48	0xbd7fe630	-0.062475383
49	0x3dd4ede7	0.10396939
50	0xbebddb32	-0.37081295
51	0xbe15cc55	-0.14628728
52	0xbde81ece	-0.113340005
53	0x3e35943a	0.17732325
54	0xbe998378	-0.29983115
55	0x3e3aea47	0.18253432
56	0xbd08104e	-0.033218674
57	0x3ebb82cf	0.36623237
58	0x3c6980ce	0.014251901
59	0xbd1a5de2	-0.03768719
60	0xbe7403fe	-0.23829648
61	0xbeb68274	-0.35646403
62	0xbde93307	-0.11386686
63	0xbe010b2a	-0.12601915
64	0xbd830efc	-0.063993424
65	0x3e1aed77	0.15129648
66	0xbdf4c357	-0.119513206
67	0x3e05dda8	0.13072836
68	0xbea6caa3	-0.32576475
69	0xbdbca383	-0.09210875
70	0x3e363134	0.17792207
71	0xbe0bf21a	-0.13666573
72	0xbcac4934	-0.021031
73	0x3e062732	0.1310089
74	0xbc6344b6	-0.013871362
75	0x3c97a550	0.018511444
76	0xbe09f08b	-0.13470666
77	0x3d0e6310	0.034762442
78	0xbe63f7ed	-0.22262545
79	0x3d88157f	0.06644725
80	0x3dbadd26	0.09124212
81	0xbee6cd04	-0.4507829
82	0x3e624f2b	0.22100513
83	0xbe9f6912	-0.3113485
84	0xbddc6f75	-0.10763446
85	0x3de4537c	0.11148736
86	0x3ea404ac	0.32034814
87	0xbb7b4fea	-0.0038347193
88	0x3c8aa448	0.016924039
89	0xbaf2cf2c	-0.0018524877
90	0xbd29e300	-0.04147625
91	0xbe4059c9	-0.1878425
92	0xbdefbe5c	-0.1170623
93	0x3d3f389b	0.046684843
94	0xbd54da73	-0.051966142
95	0xbede6430	-0.43435812
96	0x3c888fd4	0.016670145
97	0x3e0a5518	0.13509023
98	0x3e26f8f9	0.16305913
99	0x3e1976ca	0.1498672
100	0xbe6a2d0f	-0.22868751
101	0x3e4a850f	0.1977732
102	0x3f0d13ca	0.5510832
103	0x3e66592b	0.22494952
104	0xbd0f9382	-0.035052784
105	0x3eac2566	0.33622283
106	0x3e6b1674	0.22957784
107	0x3dcc9d00	0.09990883
108	0x3eca0732	0.39458615
109	0x3d03ff55	0.032225925
110	0x3e13629e	0.14393088
111	0x3cb51fa1	0.022109808
112	0xbdad83fe	-0.08472441
113	0xbd7f200c	-0.06228642
114	0x3e6592b2	0.22419241
115	0x3e04ab82	0.1295605
116	0x3d31a4fd	0.043370236
117	0xbe309421	-0.17244007
118	0xbb665a98	-0.0035149213
119	0xbe6ffb2e	-0.23435661
120	0x3df32501	0.11872292
121	0xbd95891a	-0.07301541
122	0x3d820525	0.063486375
123	0x3d29ae22	0.04142583
124	0xbd98cc94	-0.07460895
125	0x3c5a969c	0.013341572
126	0x3cff4cf6	0.031164628
127	0xbdc57799	-0.09641952
128	0x3d5b187c	0.053490147
129	0xbeab66fc	-0.33477008
130	0x3e1e72c6	0.1547347
131	0xbe3fc43a	-0.18727198
132	0x3d4464c3	0.047947656
133	0x3d096499	0.033543203
134	0x3ec5f367	0.38662264
135	0x3ddac2c0	0.10681677
136	0x3e722ba7	0.23649465
137	0xbbf906f8	-0.0075997077
138	0xbdd7af6d	-0.10531507
139	0xbe643214	-0.22284728
140	0xbed307a8	-0.4121678
141	0x3e8b0c71	0.2715793
142	0x3c8ea9c8	0.017414942
143	0xbe286908	-0.16446316
144	0xbe20828d	-0.15674801
145	0xbd88ee50	-0.066860795
146	0x3e2603b2	0.16212347
147	0x3ec4ea20	0.38459873
148	0x3e8daa6c	0.27669084
149	0xbf04dc56	-0.51898706
150	0xbdcf4cc1	-0.101220615
151	0x3d6e3fbd	0.058166254
152	0xbdd36b18	-0.10323161
153	0xbe36380a	-0.17794815
154	0x3d0618f2	0.032738633
155	0xbe999292	-0.29994637
156	0x3ea6011d	0.32422724
157	0xbea1107c	-0.3145789
158	0xbd10ece1	-0.035382155
159	0x3edbb57f	0.42911908
160	0xbc69cfcd	-0.014270735
161	0xbe2ebc69	-0.1706406
162	0xbe8dda9b	-0.27705845
163	0xbedc5686	-0.43034762
164	0xbe699b68	-0.22813189
165	0x3e762f21	0.24041416
166	0x3f06736c	0.5251987
167	0xbe29b064	-0.16571194
168	0xbdf9acfe	-0.12191199
169	0x3e3971d5	0.1810983
170	0x3e7e63ff	0.24842833
171	0x3ea8cb54	0.32967627
172	0xbcd5c872	-0.026096556
173	0x3db3b32d	0.087744094
174	0x3e9806e5	0.2969276
175	0xbe2a1450	-0.16609311
176	0x3db11bcb	0.08647879
177	0x3e92f087	0.28699133
178	0xbee5d798	-0.44891047
179	0xbe84e2a7	-0.25954172
180	0x3c2d0de0	0.01056239
181	0x3ed2c432	0.4116531
182	0x3e36c627	0.17849027
183	0x3ea073bc	0.31338298
184	0xbd8e85ab	-0.06959089
185	0x3d992d49	0.074793406
186	0xbe0fcda0	-0.14043283
187	0xbdbf0049	-0.09326226
188	0x3e1c021f	0.15235184
189	0xbe22c883	-0.15896802
190	0x3e80aad8	0.25130343
191	0x3e37f0b7	0.17962919
192	0x3d8f1af5	0.069875635
193	0x3e0d858f	0.1382048
194	0xbab2685c	-0.0013611424
195	0xbd3df434	-0.04637547
196	0xbd24f903	-0.04027654
197	0x3dbadca9	0.09124119
198	0xbe46f864	-0.19430691
199	0xbce94c64	-0.028478809
200	0xbe024a5c	-0.12723678
201	0xbe2e0ed3	-0.16997842
202	0x3e563cb4	0.20921594
203	0x3dbc9421	0.09207941
204	0xbeba53ac	-0.36391962
205	0x3ddc31df	0.107517
206	0xbd8cf887	-0.0688334
207	0xbd4c06f7	-0.04981133
208	0xbbf78a10	-0.0075543
209	0x3d1f22a7	0.038851406
210	0x3e1c3a85	0.15256698
211	0xbdafaf58	-0.08578366
212	0xbc209dd1	-0.009803251
213	0xbc220698	-0.009889267
214	0x3e80aac2	0.25130278
215	0x3e778152	0.24170426
216	0x3e13872b	0.14407031
217	0xbe8f655d	-0.28007022
218	0xbe7f3cff	-0.24925612
219	0x3ef6891f	0.4815149
220	0x3e25d65e	0.16195056
221	0xbc9657e7	-0.018352462
222	0xbed2333d	-0.41054717
223	0xbe5cef5a	-0.2157568
224	0xbe709d48	-0.23497498

arr_8 f4 [15]
0	0xbc89ce4c	-0.016822003
1	0xbe822549	-0.2541907
2	0x3d237d65	0.039914507
3	0xbdd716cb	-0.10502394
4	0x3c678576	0.014130941
5	0x3da3f77d	0.08006189
6	0xbdac8466	-0.084236905
7	0x3d35464e	0.0442565
8	0x3d838fad	0.06423888
9	0x3db7fa28	0.089832604
10	0x3e238c82	0.15971568
11	0xbd31fcac	-0.043453857
12	0x3e247beb	0.16062896
13	0x3d79fa92	0.061029978
14	0x3e623243	0.22089486

arr_9 f4 [20, 15]
0	0x3d860dd8	0.06545609
1	0xbda06265	-0.07831267
2	0x3e3e0d6f	0.18559812
3	0x3d74b67d	0.059744347
4	0x3eb275ac	0.34855402
5	0x3ebf3c0f	0.3735051
6	0x3e40c8dc	0.18826622
7	0x3e08870e	0.1333277
8	0x3ec66320	0.387475
9	0x3e72a738	0.23696601
10	0x3f25ed09	0.6481481
11	0x3ee47999	0.44624022
12	0x3e8bf6ca	0.27336723
13	0x3e14dbac	0.14536923
14	0xbdda14c2	-0.106484905
15	0x3e66cfcb	0.22540204
16	0x3e1d36b9	0.15352906
17	0x3e27ab92	0.16374043
18	0xbe1edc2e	-0.1551368
19	0x3d242da5	0.040082593
20	0x3ee4c6d6	0.4468295
21	0x3ce6aa53	0.028157389
22	0x3d95ffc9	0.07324178
23	0x3e83638d	0.2566189
24	0xbe1201d9	-0.14258517
25	0x3e4dd404	0.20100409
26	0x3d9c441e	0.0763018
27	0x3eb53f31	0.35399774
28	0x3dd0877e	0.10182093
29	0xbc9e9884	-0.019359834
30	0x3e183404	0.14863592
31	0x3ea2f758	0.31829333
32	0x3e1a4075	0.15063651
33	0xbacb1c53	-0.0015496112
34	0x3e68dddc	0.22740883
35	0x3d4c51ff	0.049882885
36	0x3c080538	0.0083020255
37	0x38771094	5.890483e-05
38	0x3cc62885	0.024189243
39	0x3d6abaf8	0.057307214
40	0x3df7e1c4	0.12103608
41	0xbe0d1109	-0.1377603
42	0x3eae168d	0.3400158
43	0x3e18876e	0.14895412
44	0xbd1bf112	-0.0380717
45	0x3e89d2b0	0.26918554
46	0x3dd38301	0.103277214
47	0x3d48393b	0.048882704
48	0xbe06ca40	-0.1316309
49	0x3d282a88	0.041056186
50	0x3ddabbb0	0.1068033
51	0x3ef1bad3	0.47212848
52	0xbe358b9e	-0.17729041
53	0x3df04d68	0.11733514
54	0xbe1f4dc4	-0.15557009
55	0x3e5ed961	0.21762611
56	0x3e373f56	0.17895254
57	0x3e5ac16b	0.21362846
58	0x3bb508c7	0.005524728
59	0xbd737353	-0.059436154
60	0x3d98d83b	0.07463118
61	0x3e7f6ff6	0.24945053
62	0x3e64ad2b	0.22331683
63	0x3da18aa3	0.07887771
64	0x3e25839b	0.16163485
65	0x3e46c95d	0.19412751
66	0x3ed96993	0.4246336
67	0xbdde6d1c	-0.10860655
68	0xbdc365bc	-0.09540889
69	0xbe8ea28c	-0.27858388
70	0x3e9c044f	0.30472037
71	0x3e5c61f5	0.21521743
72	0x3e955933	0.29169616
73	0x3d56ebbe	0.052470915
74	0x3bb77dab	0.0055996976
75	0xbdc8151f	-0.097696535
76	0x3ea92426	0.33035392
77	0x3e34681d	0.17617841
78	0x3e730e08	0.23735821
79	0x3e9308a9	0.28717545
80	0x3e224158	0.15845239
81	0x3f07ce99	0.5304962
82	0x3e07b099	0.1325096
83	0x3e26de21	0.16295673
84	0xbefc1df5	-0.49241605
85	0x3ef797ef	0.48358104
86	0x3e4746ed	0.1946065
87	0x3d555efb	0.052092534
88	0x3e80542a	0.25064212
89	0xbcf04003	-0.029327398
90	0x3e2bc939	0.16775979
91	0x3ebc2816	0.36749333
92	0x3e78092d	0.2422225
93	0xbda32dec	-0.07967743
94	0x3e1ec84f	0.15506099
95	0x3d6d599d	0.05794679
96	0x3df7f4a7	0.121072106
97	0x3cc80a73	0.024419045
98	0x3d15880a	0.03650669
99	0xbad6b41f	-0.0016380585
100	0x3e7a9998	0.24472654
101	0xbe0c5b59	-0.13706721
102	0x3ec9ff91	0.39452794
103	0x3ee10614	0.4394995
104	0x3cc53242	0.024071816
105	0x3dc50766	0.09620552
106	0x3e7c1a96	0.24619517
107	0x3cc2a440	0.023759961
108	0xbc93319c	-0.017967992
109	0x3e51a514	0.20473129
110	0x3e6b13f3	0.22956829
111	0x3e412508	0.18861783
112	0xbd928a40	-0.07155275
113	0xbe43ec80	-0.19133186
114	0xbda675cb	-0.08127936
115	0x3ea970df	0.33093926
116	0x3eab49b1	0.3345466
117	0x3f047c7d	0.51752454
118	0x3dacd7c6	0.08439593
119	0x3d424f63	0.04743899
120	0x3f26b991	0.651269
121	0x3d135bc3	0.035976183
122	0x3e289b2d	0.16465445
123	0xbe81019d	-0.25196543
124	0x3e5fd840	0.21859837
125	0x3f0706c3	0.5274469
126	0xbe466611	-0.19374873
127	0x3decfe8d	0.11571989
128	0x3df1175c	0.117720336
129	0x3f0e3aa4	0.5555823
130	0x3ec2dc66	0.38058776
131	0x3eba8991	0.3643308
132	0x3ee83416	0.45352238
133	0x3e6d1129	0.23151077
134	0x3f16006f	0.5859441
135	0xbea71126	-0.3263027
136	0x3e56bce9	0.20970501
137	0x3e4cdccb	0.20006101
138	0x3e8bfdd6	0.273421
139	0x3dfba658	0.12287587
140	0xbbaae7ed	-0.005215636
141	0x3dc6a435	0.09699289
142	0x3e6b68eb	0.22989242
143	0x3e3d26e2	0.18471864
144	0x3e28210c	0.16418856
145	0x3c24abe8	0.010050751
146	0x3e892db2	0.26792675
147	0x3e2e1205	0.16999061
148	0x3e0b9edb	0.13634817
149	0x3d647333	0.055773925
150	0xbdf5cc36	-0.12001841
151	0x3ea7ec25	0.3279735
152	0xbe1208f6	-0.14261231
153	0x3dd5ce09	0.10439689
154	0x3e3cce63	0.18438105
155	0x3eda14bb	0.4259394
156	0x3f0f322d	0.5593594
157	0x3e4a581a	0.1976017
158	0x3e89fba7	0.26949808
159	0xbe2c46e5	-0.16823919
160	0x3dc9064c	0.09815654
161	0x3e80a3bb	0.25124916
162	0x3e9f8e18	0.31163096
163	0x3e33acdf	0.17546414
164	0xbe7cd53f	-0.24690722
165	0xbd0da0b3	-0.034577083
166	0x3e60f240	0.21967411
167	0x3e992a15	0.2991492
168	0xbe4072bc	-0.18793768
169	0x3e1bf31a	0.15229455
170	0xbe226a04	-0.15860754
171	0x3d6ae3cc	0.05734615
172	0x3e828a4a	0.2549613
173	0x3d285313	0.04109485
174	0xba79d879	-0.0009530853
175	0x3e0b8134	0.13623506
176	0x3e6103d5	0.21974118
177	0x3f073a93	0.5282375
178	0x3e5788f3	0.21048336
179	0x3c949de6	0.018141698
180	0x3e7fdb1b	0.24985926
181	0x3edb3687	0.4281504
182	0xbe821bf1	-0.25411943
183	0xbe138734	-0.14407045
184	0x3eecdc1e	0.46261686
185	0x3e89b1a8	0.26893353
186	0x3ee92d1c	0.45542228
187	0x3d22cfa7	0.039748814
188	0x3e30873a	0.17239085
189	0x3de0596e	0.10954557
190	0x3dc8949d	0.09793971
191	0x3ecdb9c1	0.4018078
192	0x3ed73653	0.42033634
193	0x3d2a1279	0.041521523
194	0xbd16da0e	-0.036829047
195	0xbcaf4119	-0.021393346
196	0x3de49fbe	0.11163281
197	0x3e164245	0.14673717
198	0xbdef6007	-0.11688238
199	0x3e50a2bc	0.20374578
200	0x3e27faf8	0.1640433
201	0x3df03eef	0.11730754
202	0xbc7df293	-0.015499729
203	0x3e22993b	0.15878765
204	0x3bb08663	0.005387114
205	0x3e9f6084	0.31128323
206	0x3e64eed2	0.22356728
207	0x3ec9b64c	0.39396894
208	0x3e909412	0.2823797
209	0x3e576688	0.21035206
210	0xbd9470d3	-0.07248082
211	0x3e419825	0.18905695
212	0x3e9b05b2	0.30277783
213	0xbe937169	-0.28797463
214	0xbe4101e7	-0.18848382
215	0xbdf51742	-0.11967327
216	0x3f2932ed	0.6609333
217	0xbdeb4c0a	-0.11489113
218	0xbe06fbb2	-0.13181952
219	0xbe77530f	-0.24152778
220	0x3bf0dbf8	0.007350441
221	0x3e295aaf	0.165385
222	0xbe01c286	-0.12671861
223	0xbe640f07	-0.22271357
224	0xbee27ea3	-0.4423724
225	0x3ea333ca	0.3187545
226	0x3de3b6ab	0.111188255
227	0x3cd4ec64	0.025991626
228	0xbe301049	-0.17193712
229	0x3dab47cf	0.08363306
230	0x3e4ccc08	0.19999707
231	0x3e969041	0.29406932
232	0xbd51fca8	-0.051266342
233	0xbe2a1114	-0.16608077
234	0x3d9719cf	0.073779695
235	0x3e831816	0.25604314
236	0x3e440ba8	0.19145072
237	0x3edebf38	0.43505263
238	0x3da809de	0.08205007
239	0x3d9ca599	0.07648773
240	0x3e0887b7	0.13333021
241	0x3e757fd9	0.23974551
242	0xbe08ba6f	-0.13352369
243	0x3c02f1f1	0.007992254
244	0x3e082aeb	0.13297622
245	0xbca80b1c	-0.02051311
246	0x3eca05cb	0.39457545
247	0x3c0ff949	0.008787462
248	0x3d816b4d	0.06319294
249	0xbdbff23d	-0.09372375
250	0x3ea94373	0.33059272
251	0x3e96966e	0.29411644
252	0x3d97467f	0.07386493
253	0x3db4fe14	0.08837524
254	0xbe48ff63	-0.19628672
255	0xbd159b12	-0.03652484

arr_10 f4 [15, 15]
0	0x3dd86266	0.10565643
1	0x3e9839d4	0.2973162
2	0xbd4352d3	-0.04768641
3	0xbdbd8fb3	-0.09255924
4	0x3dc863d6	0.09784667
5	0x3ef77ce1	0.48337463
6	0x3e29484e	0.16531488
7	0x3c455a1a	0.012045408
8	0x3e58c641	0.21169378
9	0x3e80bd36	0.25144356
10	0x3e4c7cf9	0.19969548
11	0xbe295a5c	-0.16538376
12	0x3e02697f	0.12735556
13	0x3d31fde6	0.043455027
14	0x3e9a0c36	0.3008744
15	0x3e1a303c	0.15057462
16	0xbd9d3be9	-0.076774426
17	0xbda6ed21	-0.081506975
18	0xbe26718c	-0.16254252
19	0x3e8d0c1c	0.275483
20	0xbe3959db	-0.18100683
21	0x3c5b0704	0.013368372
22	0x3e5a1188	0.2129575
23	0x3e2741a9	0.16333641
24	0x3e3b99d1	0.18320395
25	0x3e1a45d2	0.15065697
26	0xbd6e62d5	-0.058199722
27	0x3ecb5eb4	0.3972069
28	0x3e46f79f	0.19430397
29	0xbd846920	-0.064653635
30	0x3db18c52	0.08669342
31	0x3e111a87	0.14170276
32	0x3dffa329	0.12482292
33	0x3d0fb6e0	0.035086513
34	0xbdeff339	-0.11716313
35	0xbea008b5	-0.31256643
36	0x3e0853fe	0.1331329
37	0x3e4e676f	0.20156644
38	0x3e16cfef	0.14727758
39	0xbd2bcead	-0.04194515
40	0x3e54c4a2	0.20778134
41	0x3d847a67	0.06468659
42	0x3ebb4e62	0.3658324
43	0x3ca9e49b	0.02073889
44	0x3dea0c38	0.11428112
45	0xbe367765	-0.17818983
46	0xbe3773fa	-0.17915335
47	0x3db3418f	0.08752739
48	0xbc152211	-0.00910236
49	0x3d7cc8fe	0.06171512
50	0xbe922628	-0.28544736
51	0xbc7f1b29	-0.01557044
52	0xbe1ea5b3	-0.15492897
53	0x3db9c9ef	0.09071719
54	0xbe6a9fca	-0.22912517
55	0x3be97d85	0.007125559
56	0xbe7efe76	-0.24901757
57	0x3ea1fcc7	0.31638166
58	0xbead246c	-0.3381685
59	0x3d9bb123	0.076021455
60	0xbe5521f8	-0.2081374
61	0xbd9bb9a4	-0.076037675
62	0x3d85875f	0.065199606
63	0x3e6c14ed	0.23054858
64	0xbe0d07f3	-0.13772564
65	0xbc9a5887	-0.018841041
66	0xbe0d8184	-0.13818938
67	0x3d108f4f	0.03529292
68	0xbdebc25e	-0.11511682
69	0x3c9ad49b	0.018900206
70	0x3ed4604c	0.4147972
71	0xbe1062dc	-0.14100212
72	0xbdeb361a	-0.114849284
73	0x3d99a318	0.07501811
74	0xbd901865	-0.07035903
75	0xbec6b4f3	-0.38809928
76	0xbd325cd2	-0.04354555
77	0xbe48b787	-0.1960126
78	0xbdf0bb9a	-0.11754532
79	0xbd96cdd7	-0.073634796
80	0x3c7f77b2	0.015592502
81	0xbd0b0e90	-0.033949435
82	0x3e3c3bdf	0.18382214
83	0xbd19f312	-0.037585326
84	0xbe1d8c01	-0.15385439
85	0x3c91abac	0.017782055
86	0x3dc3222d	0.09528003
87	0xbeb02d9f	-0.34409806
88	0x3ba6f270	0.005094819
89	0xbea89f6e	-0.32934135
90	0xbe4ad5aa	-0.19808069
91	0x3dbd5c38	0.09246105
92	0xbdb22909	-0.08699233
93	0x3e467f34	0.19384462
94	0x3e14e5df	0.14540814
95	0xbe9de993	-0.30842265
96	0x3d616e6f	0.05503696
97	0x3df4bc7f	0.11950015
98	0xbdb74f81	-0.08950711
99	0xbe35a343	-0.1773806
100	0x3d25a562	0.040440924
101	0x3e155276	0.14582238
102	0x3dc797d3	0.09745755
103	0x3c897cd8	0.016783163
104	0x3dd10d95	0.10207669
105	0xbd16d0e3	-0.036820304
106	0x3e027781	0.127409
107	0x3d4182ed	0.047244
108	0x3c05de61	0.008170695
109	0xbe10e303	-0.14149098
110	0x3e3d77dd	0.18502755
111	0xbe37a9ad	-0.1793582
112	0x3c0ba31c	0.008522775
113	0xbe2de303	-0.1698113
114	0x3e2f4df0	0.17119575
115	0xbe00ae8e	-0.12566587
116	0x3d8d5aed	0.06902108
117	0xbf198666	-0.599707
118	0x3e2bdb25	0.16782816
119	0x3d347aba	0.044062354
120	0x3dff6dd0	0.12472117
121	0x3e839d83	0.2570611
122	0x3e834e6b	0.25645766
123	0x3d4d5466	0.050129317
124	0x3d807782	0.06272794
125	0xbc1d9d72	-0.009620057
126	0x3e5705e3	0.2099834
127	0x3e3ae360	0.18250799
128	0x3e9d64ed	0.30741063
129	0x3d4d027c	0.050051197
130	0x3e11f38e	0.14253065
131	0x3e37ff18	0.17968404
132	0x3e6713cb	0.22566144
133	0x3e3dc06b	0.18530433
134	0xbd02b500	-0.031910896
135	0xbee783c3	-0.45217714
136	0xbeb0c800	-0.34527588
137	0x3ce0ac97	0.027426047
138	0xbe0b8111	-0.13623454
139	0xbb1f34f7	-0.0024293044
140	0xbed8df24	-0.42357743
141	0x3e330846	0.17483625
142	0xbe8cba05	-0.27485672
143	0xbe082085	-0.13293655
144	0xbedf05a6	-0.43558997
145	0x3e062bce	0.13102648
146	0xbe7d120c	-0.24713916
147	0xbd8a185f	-0.0674293
148	0xbea6e5db	-0.3259724
149	0xbf340b21	-0.7032948
150	0x3e1b0891	0.15139987
151	0xbd4e71d1	-0.050401513
152	0xbd59b64e	-0.053152375
153	0xbdb55e09	-0.088558264
154	0xbdf2881d	-0.11842368
155	0xbe0ecca0	-0.13945246
156	0xbdd726d8	-0.10505456
157	0xbda3366a	-0.07969363
158	0x3d2deb79	0.042460892
159	0x3e23bccd	0.1598999
160	0xbea43b06	-0.3207628
161	0xbee76d9a	-0.45200807
162	0xbf16f804	-0.5897219
163	0xbd9e6e0b	-0.07735833
164	0xbe012a71	-0.12613846
165	0x3e8e17fc	0.27752674
166	0x3b2fd0e4	0.002682739
167	0xbd62067e	-0.055181973
168	0xbeb2973b	-0.34881005
169	0x3da62bd3	0.081138276
170	0x3e7dd00d	0.24786396
171	0x3e4f5ea0	0.2025094
172	0xbe538064	-0.20654446
173	0x3e308e4c	0.17241782
174	0x3e2f8f83	0.17144589
175	0xbe349aed	-0.17637224
176	0xbe2fc0a6	-0.17163333
177	0x3dc560a9	0.09637577
178	0xbe073c06	-0.13206491
179	0xbd29f498	-0.04149303
180	0xbeca010c	-0.39453924
181	0x3d237296	0.0399042
182	0x3ea50a5d	0.3223447
183	0x3ed4caa4	0.41560853
184	0xbd96f3ef	-0.073707454
185	0xbe403937	-0.18771826
186	0xbd6b5064	-0.057449713
187	0x3dcb1331	0.0991577
188	0xbc8c2cd2	-0.017111216
189	0xbe6ee6b5	-0.23330195
190	0x3e65fab4	0.22458917
191	0xbc064d75	-0.008197178
192	0xbde07804	-0.10960391
193	0x3def7129	0.116915055
194	0xbe426a5b	-0.18985884
195	0x3e15183f	0.1456003
196	0xbd00400a	-0.031311072
197	0xba8c168d	-0.0010687873
198	0xbc5a592b	-0.013326923
199	0x3e470715	0.19436295
200	0xbe124773	-0.14285068
201	0x3e52bb43	0.20579247
202	0xbc44fd3e	-0.012023268
203	0x3e6cd41a	0.23127785
204	0xbe2f8d4e	-0.17143747
205	0x3e1aacf3	0.15105037
206	0xbd021092	-0.031754084
207	0x3eb009fe	0.34382623
208	0x3d3801c6	0.044923566
209	0x3defce9b	0.11709329
210	0xbdad127f	-0.084507935
211	0xbdfd62e2	-0.12372376
212	0xbe6e957b	-0.2329921
213	0xbea4f3fb	-0.32217392
214	0x3e0b4d54	0.13603717
215	0x3eaa2621	0.33232215
216	0xbe7c1664	-0.24617916
217	0xbe45bfc3	-0.19311433
218	0xbe1bfef6	-0.15233979
219	0x3eaa543e	0.33267397
220	0xbdd759ba	-0.10515161
221	0x3e0639c9	0.13107981
222	0xbec0ec13	-0.3768011
223	0x3d17ec5e	0.03709065
224	0xbd20a0b8	-0.039215773

arr_11 f4 [15]
0	0x3e3f3ba4	0.18675095
1	0x3dbeb40e	0.093116865
2	0x3d966634	0.073437124
3	0xbd307e9e	-0.0430895
4	0x3df55135	0.1197838
5	0x3dda6a9f	0.106648676
6	0x3e25a824	0.16177422
7	0x3dae0c40	0.0849843
8	0x3ddfcc0c	0.10927591
9	0x3e0dc7c8	0.13845742
10	0x3e1ae558	0.1512655
11	0x3df158be	0.11784504
12	0x3ed620b8	0.41821837
13	0x3dad401f	0.08459496
14	0x3e001e25	0.12511499
