subcellular_localization/notebook tutorial/params/CNN-LSTM_params.npz (npz, 41946 bytes, 44 tensors)

arr_0 f4 [10, 20, 3]
0	0x3ed0fa63	0.4081603
1	0xbd7b1a4a	-0.061304368
2	0x3e98c4b1	0.29837564
3	0x3ddcffd5	0.107909836
4	0x3e518ec4	0.20464617
5	0x3db77b79	0.089590974
6	0xbcb71981	-0.022351028
7	0x3d1988f0	0.03748411
8	0xbe58ed41	-0.21184255
9	0xbf16751b	-0.5877244
10	0xbe8098be	-0.25116533
11	0xbee1bfc1	-0.4409161
12	0x3d7fc92d	0.062447716
13	0x3de56d00	0.11202431
14	0x3e69f0fc	0.22845834
15	0xbcce5469	-0.025186734
16	0xbde37552	-0.111063614
17	0x3e27ed83	0.16399197
18	0xbe27f883	-0.16403393
19	0xbeb4a1d5	-0.35279718
20	0xbe791873	-0.24325733
21	0xbd59d2f5	-0.0531797
22	0xbdd3f023	-0.10348537
23	0xbeaa3be9	-0.33248833
24	0xbd699230	-0.05702418
25	0xbe9be480	-0.3044777
26	0xbbd95771	-0.0066327383
27	0x3e8e7c87	0.27829382
28	0x3eaa665c	0.3328122
29	0x3e5e8a3e	0.21732423
30	0x3c37773e	0.011197863
31	0x3e808de2	0.25108248
32	0x3e9f2f05	0.3109056
33	0xbe2c7744	-0.16842371
34	0xbcfa2e81	-0.030539753
35	0xbdb29fe3	-0.08721902
36	0xbeebbe50	-0.46043634
37	0xbe3543f2	-0.177017
38	0x3eaaeb26	0.3338253
39	0x3e3e23bb	0.18568318
40	0x3deec6de	0.11659025
41	0x3e60caaa	0.2195231
42	0xbe1d98da	-0.1539034
43	0x3e304687	0.17214404
44	0x3ca6474b	0.020297667
45	0x3dc26c9a	0.0949337
46	0x3bdafcf1	0.006682985
47	0x3e455896	0.19272074
48	0x3d841dfd	0.06451032
49	0x3ddd1e73	0.10796823
50	0xbd0f9ea8	-0.035063416
51	0xbe8e86e3	-0.27837285
52	0x3d0bf860	0.034172416
53	0x3e200d56	0.15630087
54	0x3e19a6d7	0.1500505
55	0xbe2d584c	-0.16928214
56	0xbb994848	-0.004677806
57	0x3eb375d3	0.3505083
58	0xbd9daec7	-0.07699352
59	0x3e75f3c2	0.24018767
60	0x3ec19210	0.3780675
61	0xbd84b2e6	-0.06479435
62	0xbe8f1b0d	-0.27950326
63	0x3e4b20ad	0.19836684
64	0x3d9b895f	0.07594561
65	0x3e00d583	0.12581448
66	0x3bceddd7	0.0063130665
67	0x3e82d0fc	0.25550067
68	0xbe90bdcd	-0.28269807
69	0xbe6b5f9e	-0.22985694
70	0xbf1e98c7	-0.6195187
71	0xbd66864d	-0.056280423
72	0x3e7a10fb	0.2442054
73	0xbd93b106	-0.07211499
74	0x3f1564fe	0.58357227
75	0xbdb5f704	-0.08885005
76	0x3e117f6d	0.14208765
77	0x3e00533d	0.12531753
78	0xbe73bf62	-0.23803475
79	0xbe6e5a5b	-0.23276655
80	0xbef0c9a5	-0.47028843
81	0x3e61b0ac	0.22040051
82	0xbe37683f	-0.1791086
83	0xbdb6abe2	-0.08919503
84	0xbf023596	-0.50863016
85	0xbe884c7a	-0.26620847
86	0x3e1d2b8c	0.15348643
87	0x3cf9a1f2	0.03047273
88	0x3e311699	0.17293777
89	0xbf132716	-0.57481515
90	0x3d012b16	0.03153523
91	0xbc6ee276	-0.01458036
92	0x3e72fa64	0.23728329
93	0xbe2f99ec	-0.1714856
94	0xbdef8a05	-0.11696247
95	0x3ee150e6	0.44007033
96	0xbeaada79	-0.33369806
97	0x3f13bb71	0.5770789
98	0x3e3e0dba	0.18559924
99	0x3e89b730	0.26897573
100	0xbe808f05	-0.25109115
101	0xbdda6899	-0.10664482
102	0x3e5198ab	0.20468394
103	0x3e02e169	0.127813
104	0xbe2f334c	-0.17109412
105	0x3e4f0d42	0.20219901
106	0x3b3a9dfd	0.0028475516
107	0x3e8b7808	0.27240014
108	0x3dd60fd5	0.104522385
109	0xbe806a47	-0.25081083
110	0xbe1940c7	-0.14966117
111	0xbe4df51e	-0.20113036
112	0xbf244fb5	-0.64184123
113	0x3ebbdbb4	0.36691058
114	0xbe8495af	-0.2589545
115	0xbec0e977	-0.3767812
116	0xbea2e733	-0.31817016
117	0xbce7a635	-0.028277496
118	0xba99ab30	-0.0011723991
119	0x3e2ae2d6	0.16688094
120	0x3ec18517	0.37796852
121	0x3ec8dd66	0.39231414
122	0xbe859907	-0.26093313
123	0xbeb3822b	-0.35060248
124	0x3d299a50	0.04140693
125	0xbe84101f	-0.2579355
126	0xbf2a5fb2	-0.6655227
127	0xbeefbf3b	-0.46825585
128	0xbf01e8fb	-0.50746125
129	0x3ee45447	0.4459555
130	0xbf33d345	-0.70244247
131	0xbe2bd1de	-0.16779277
132	0xbebb722e	-0.3661055
133	0xbebec13a	-0.37256795
134	0xbe0d7163	-0.13812785
135	0x3de0a6dd	0.10969327
136	0x3e8c44db	0.27396283
137	0x3e579957	0.21054588
138	0xbe9ccc82	-0.30624777
139	0x3de3d37d	0.111243226
140	0xbec49eea	-0.38402492
141	0x3e48b4e5	0.19600256
142	0xbf084797	-0.5323424
143	0x3d9a492f	0.0753349
144	0xbefeefab	-0.49792227
145	0xbf6ed808	-0.9329839
146	0xbc531888	-0.012884267
147	0x3b32b6cf	0.0027269607
148	0x3dc1107c	0.09426972
149	0xbe724d44	-0.23662287
150	0x3c493f87	0.0122832125
151	0x3d92f820	0.07176232
152	0x3e14d7f9	0.14535512
153	0x3ea27c03	0.31735238
154	0xbe0f7f38	-0.14013374
155	0xbc373efd	-0.011184451
156	0xbc90b6ea	-0.017665345
157	0x3e76477c	0.24050707
158	0x3e411da3	0.18858962
159	0x3ea494e6	0.3214485
160	0xbeb1c136	-0.3471772
161	0xbd29fe1a	-0.041502096
162	0xbf1afe84	-0.6054461
163	0xbef6d5df	-0.48210046
164	0xbe538f22	-0.2066007
165	0x3d65598a	0.055993594
166	0x3e8509f2	0.2598415
167	0x3ee3473b	0.44390282
168	0xbe34fd66	-0.17674789
169	0xbf310b49	-0.69157845
170	0x3e442d2c	0.19157857
171	0xbf07c9a0	-0.5304203
172	0xbea308ac	-0.31842554
173	0x3e3f7f77	0.18700968
174	0xbe35d2b6	-0.17756161
175	0x3dc90908	0.09816176
176	0xbe4a2950	-0.19742322
177	0xbd5251e2	-0.05134762
178	0x3e353161	0.17694618
179	0x3e5358f9	0.20639409
180	0xbdebc5f3	-0.11512365
181	0x3e3fd2ff	0.18732832
182	0x3e2d8c45	0.1694804
183	0x3dcc7083	0.099823974
184	0x3d596dd6	0.053083263
185	0xbe6993f7	-0.2281035
186	0x3e3cf9eb	0.18454711
187	0x3e8bbca1	0.2729235
188	0x3da92a1f	0.08259987
189	0x3e6ada2e	0.22934791
190	0x3df78f73	0.12087908
191	0x3e366927	0.1781355
192	0xbe4140cf	-0.18872379
193	0xbd85d7cf	-0.06535303
194	0xbe9232d1	-0.28554395
195	0x3d7f3e96	0.062315546
196	0x3e356323	0.17713599
197	0x3d9be08d	0.07611189
198	0x3e8fd63d	0.28093138
199	0x3dda5c0f	0.1066209
200	0x3e0ffe2d	0.14061804
201	0x3e80742a	0.25088626
202	0x3d4b33e8	0.04961005
203	0x3eabf169	0.3358262
204	0x3e66d427	0.22541867
205	0x3df37b07	0.118887
206	0x3e83ca57	0.2574031
207	0xbd382b31	-0.044963066
208	0xbe971552	-0.29508454
209	0xbeb639c0	-0.35590935
210	0xbceaf7a3	-0.028682536
211	0x3e111c91	0.14171053
212	0x3c8982b9	0.016785966
213	0xbdfcd7a8	-0.12345821
214	0xbee9fe34	-0.45701754
215	0xbdc0e9bb	-0.094195805
216	0xbccb04ab	-0.0247825
217	0x3d5cbc54	0.05389054
218	0xbe32da1f	-0.17466019
219	0xbcf38054	-0.029724278
220	0xbe17cd4e	-0.14824411
221	0xbe25f3d9	-0.16206302
222	0x3e0d441a	0.1379551
223	0x3eb23bd9	0.34811285
224	0x3e4e65d8	0.20156038
225	0xbde725e7	-0.11286526
226	0x3de6d1e9	0.11270506
227	0x3edc93ae	0.4308142
228	0xbe9f72fd	-0.31142417
229	0xbe614c13	-0.22001676
230	0x3d5b83e7	0.05359259
231	0xbd8450a5	-0.06460694
232	0xbe289385	-0.16462524
233	0x3e16571c	0.14681667
234	0xbd1cb6af	-0.03826016
235	0xbeb0b37a	-0.3451193
236	0xbe7c033d	-0.2461061
237	0xbed333f5	-0.41250578
238	0xbeaf0f41	-0.34191325
239	0xbec17224	-0.37782395
240	0xbbc142b0	-0.0058978423
241	0xbe99d04c	-0.3004173
242	0x3d8b5a70	0.06804359
243	0x3f0a310a	0.5398108
244	0x3ed182ec	0.40920198
245	0x3da5bff0	0.0809325
246	0x3e8e8042	0.27832228
247	0xbd830324	-0.063970834
248	0x3e639349	0.22224154
249	0x3ed359b4	0.41279376
250	0x3e78f2d0	0.24311376
251	0x3ec4592f	0.38349292
252	0xbdd45af0	-0.103689075
253	0x3dadef0c	0.0849286
254	0xbdc982a1	-0.098393686
255	0x3d36cb83	0.044627678

arr_1 f4 [10]
0	0x3d4dc16b	0.050233286
1	0x3c974333	0.01846466
2	0xbd5cdb73	-0.05392022
3	0xbc1897fe	-0.0093135815
4	0x3c29c6f7	0.010362378
5	0x3b6e6fa2	0.0036382456
6	0x3c234954	0.009966213
7	0x3c2e889d	0.010652688
8	0x3ceddf56	0.029037159
9	0x3d3fe3f5	0.046848256

arr_2 f4 [10, 20, 5]
0	0xbeb239b2	-0.34809643
1	0x3c4bdc53	0.012442666
2	0xbd3d5c97	-0.04623088
3	0x3e227652	0.15865448
4	0xbcb1b9a7	-0.021694971
5	0xbe249fd3	-0.16076593
6	0xbdf6c935	-0.12050096
7	0xbc22e8e7	-0.009943224
8	0xbe3542ae	-0.17701218
9	0xbdce8335	-0.100836195
10	0x3ecba71d	0.39775935
11	0x3eb9ccbf	0.3628902
12	0x3e8d3934	0.27582705
13	0x3d742fa1	0.059615735
14	0x3d2abfcd	0.04168682
15	0x3e65cab0	0.224406
16	0x3ba4b34f	0.005026258
17	0x3d285ca3	0.04110397
18	0x3e2a184b	0.1661083
19	0x3dded784	0.1088095
20	0x3ecfd7c2	0.40594298
21	0x3eec19db	0.46113476
22	0x3e47dc2c	0.19517583
23	0x3eaeb322	0.34121042
24	0x3dce6bbb	0.10079142
25	0xbd86ebe5	-0.06587962
26	0xbc818517	-0.015810532
27	0xbc729e7e	-0.014808295
28	0xbe6e83c8	-0.23292458
29	0xbd03faca	-0.032221593
30	0x3d3b1c71	0.04568142
31	0xbe63a0b6	-0.22229275
32	0x3d179213	0.03700454
33	0x3da93def	0.08263766
34	0x3e1c11dc	0.15241188
35	0xbaa9b133	-0.0012946486
36	0x3e7523a6	0.2393938
37	0xbe179782	-0.1480389
38	0x3e0764bd	0.13222022
39	0xbd941fad	-0.07232604
40	0xbd73d28f	-0.059526976
41	0x3e813594	0.2523619
42	0x3db05a08	0.08610922
43	0x3e1be2d7	0.15223251
44	0x3e6f22c1	0.23353101
45	0x3e0449aa	0.12918726
46	0x3d0e10fa	0.03468416
47	0x3c68dde0	0.014213055
48	0x3e8e945b	0.2784756
49	0xbc2932db	-0.010327066
50	0xbe950b58	-0.29110217
51	0xbddb9bc8	-0.10723072
52	0xbddc4c71	-0.107567675
53	0x3e26d9ed	0.1629407
54	0x3bb1d2f9	0.005426761
55	0x3ec5cee1	0.386344
56	0xbe472f10	-0.19451547
57	0x3d91a6ab	0.071118675
58	0x3e19fff4	0.15039045
59	0xbb7a50b0	-0.0038195066
60	0xbe9895a6	-0.29801673
61	0xbe1b8d9e	-0.15190741
62	0xbe26b070	-0.16278243
63	0x3d031668	0.03200379
64	0xbee6886a	-0.4502595
65	0xbe1f8faf	-0.15582155
66	0x3e2ad333	0.16682129
67	0xbc2a6eaa	-0.010402361
68	0xbd7a02a5	-0.06103768
69	0xbec555f9	-0.38542154
70	0x3d82fa9e	0.06395458
71	0x3d5bef7e	0.053695194
72	0xbeae7119	-0.34070662
73	0xbdf12df9	-0.11776347
74	0x3e8693c8	0.26284623
75	0xbdcc3cf3	-0.09972563
76	0xbe6fe074	-0.23425466
77	0x3e9ee089	0.31030682
78	0xbdb8f2ff	-0.09030723
79	0xbe5efa68	-0.2177521
80	0xbd8491ed	-0.06473146
81	0xbdb34430	-0.0875324
82	0x3e0e5804	0.13900763
83	0xbe7cce7a	-0.2468814
84	0x3d923eb9	0.0714087
85	0x3a9cabb3	0.0011953026
86	0x3dc2b767	0.095076375
87	0x3de88807	0.1135407
88	0x3cfa2743	0.0305363
89	0xbe660872	-0.22464159
90	0xbc4137b0	-0.011793062
91	0x3ce90a2f	0.028447239
92	0x3e8e00af	0.27734897
93	0x3e67ef68	0.2264992
94	0x3edc8b17	0.43074867
95	0x3e7d84f8	0.24757755
96	0xbe0ffb22	-0.14060643
97	0xbde416e5	-0.11137179
98	0xbe1aba28	-0.15110075
99	0xbe511017	-0.20416294
100	0xbae225ba	-0.0017253675
101	0x3bd95d46	0.0066334335
102	0xbdfc67f2	-0.123245135
103	0xbbf5ba9b	-0.0074990517
104	0xbcd3f9e7	-0.025875999
105	0xbf036dd8	-0.51339483
106	0xbe3de2d9	-0.18543567
107	0xbe389415	-0.18025239
108	0xbecd5f9b	-0.40112004
109	0xbea64125	-0.32471576
110	0xbc8ec3b0	-0.017427295
111	0xbeba8a5a	-0.3643368
112	0xbe3ec70c	-0.18630618
113	0xbe31bd15	-0.17357285
114	0xbe9f4d37	-0.31113598
115	0xbdc52bb8	-0.09627479
116	0x3da4d43f	0.08048295
117	0x3d96602b	0.07342561
118	0x3e4d2007	0.20031749
119	0x3d9335f8	0.07188028
120	0x3e4671b1	0.19379307
121	0x3e145b95	0.14488061
122	0x3e95d3f6	0.29263276
123	0x3e8213fa	0.25405866
124	0x3e5b451d	0.21413083
125	0x3dad38eb	0.08458122
126	0xbe4cd9b3	-0.2000492
127	0xbeafe9c3	-0.34358034
128	0xbc9284e6	-0.017885637
129	0xbeb9e426	-0.36306876
130	0xbd97356f	-0.073832385
131	0x3d7577c3	0.059928667
132	0xbd748889	-0.059700523
133	0x3d962f10	0.07333195
134	0xbe1f0721	-0.15530063
135	0x3d9e1637	0.07719081
136	0xbe485c29	-0.19566406
137	0x3bde179c	0.006777717
138	0x3e58181f	0.21102951
139	0x3e7d88e6	0.24759254
140	0x3e9ba264	0.30397332
141	0x3e099d47	0.13438903
142	0x3ec807b2	0.3906837
143	0x3d978a00	0.07399368
144	0xbe2ff6a2	-0.17183927
145	0x3dbf721b	0.09347936
146	0x3e775729	0.24154343
147	0x3b7e9a00	0.0038849115
148	0xbcbb5fac	-0.022872768
149	0x3ddb6f9a	0.10714646
150	0x3eb49c4f	0.35275504
151	0x3ea12a6d	0.3147768
152	0xbd174bb2	-0.036937423
153	0x3de111a5	0.109896936
154	0x3c851af4	0.016248204
155	0xbe824c46	-0.25448817
156	0xbdabbef1	-0.083860286
157	0x3c22e55e	0.009942381
158	0xbe0b2d58	-0.13591516
159	0x3da75d6e	0.08172117
160	0x3ea6fab2	0.3261314
161	0x3e6d78d8	0.2319063
162	0xbd2168d0	-0.039406598
163	0xbeb7b650	-0.3588128
164	0xbd3d09a8	-0.046151787
165	0xbd86fe6e	-0.06591497
166	0xbda209ff	-0.07912063
167	0x3e33e3f6	0.17567429
168	0x3dd84415	0.105598606
169	0x3eb8a12f	0.36060473
170	0x3baa4b67	0.005196977
171	0x3e1364e7	0.1439396
172	0x3e257635	0.16158374
173	0x3e50f108	0.20404446
174	0x3e857188	0.2606318
175	0xbece0df9	-0.40245035
176	0xbe9a5365	-0.3014175
177	0xbeba648c	-0.36404836
178	0xbbdf1fd6	-0.006809215
179	0xbe93d367	-0.28872225
180	0x3e0eabfe	0.13932797
181	0x3ea7ba4d	0.32759324
182	0x3e712642	0.2354975
183	0x3df9964f	0.12186872
184	0x3e80be78	0.25145316
185	0xbdddab29	-0.10823662
186	0x3e968f15	0.29406038
187	0x3ebe3922	0.37152964
188	0x3db6cbf0	0.08925617
189	0x3e9d4835	0.30719152
190	0x3ca56ddf	0.020193992
191	0x3e091f40	0.13390827
192	0x3e654139	0.22388162
193	0x3d5673e2	0.05235661
194	0xbd9a503b	-0.07534834
195	0x3e9f9e16	0.31175297
196	0x3e3b1724	0.18270546
197	0x3ea35279	0.3189886
198	0x3eab339e	0.33437818
199	0x3d3fdae6	0.046839617
200	0x3e9c6c41	0.3055134
201	0xbcb48f72	-0.022041056
202	0x3d1f6a70	0.038919866
203	0x3da4480e	0.08021556
204	0xbcae4bc4	-0.021276362
205	0xbd37eecd	-0.044905473
206	0x3d7eafb9	0.0621793
207	0x3d9a3de8	0.07531339
208	0x3d9168bb	0.07100054
209	0x3e288444	0.16456705
210	0x3af897c2	0.0018966126
211	0x3dcdfb30	0.10057676
212	0x3e49f33f	0.19721697
213	0x3dbb4e4d	0.09145794
214	0x3db72e09	0.089443274
215	0xbed14918	-0.4087608
216	0xbe7c79f8	-0.24655902
217	0xbea6d04f	-0.32580802
218	0xbd59cbb3	-0.05317278
219	0xbe451359	-0.19245662
220	0x3e5c8ea6	0.21538791
221	0x3cda27d2	0.026630316
222	0x3e77aaa5	0.2418619
223	0x3e96c51d	0.2944726
224	0x3dc9c84c	0.09852657
225	0xbe7959ae	-0.24350616
226	0xbd699e8a	-0.05703596
227	0x3e232964	0.15933758
228	0x3e738969	0.23782887
229	0x3eec1140	0.4610691
230	0xbe361111	-0.17779948
231	0xbe675fa4	-0.22595078
232	0xbb4bcaf6	-0.0031096316
233	0xbea8490e	-0.32868236
234	0xbef01202	-0.4688874
235	0x3d0a45f8	0.033758134
236	0x3e01dffd	0.12683101
237	0x3da9cb69	0.082907505
238	0xbdfaede2	-0.12252404
239	0x3d7188fb	0.058968525
240	0x3e211cd7	0.15733658
241	0x3d9dcdcd	0.07705269
242	0x3e0f0bde	0.1396937
243	0xbcec378f	-0.028835086
244	0x3e85d31c	0.26137626
245	0xbb906d5e	-0.004407569
246	0xbcbb90ae	-0.022896137
247	0xbe11de1a	-0.14244881
248	0xbda4d124	-0.08047703
249	0xbe887f8e	-0.26659817
250	0xbe767c0c	-0.24070758
251	0x3d1d3ba6	0.038386963
252	0x3d007a05	0.031366367
253	0x3c7bf404	0.015378002
254	0xbe135f1a	-0.14391747
255	0xbf0dd5b6	-0.5540422

arr_3 f4 [10]
0	0x3c8bd40f	0.01706889
1	0x3ccefc77	0.025266869
2	0x3d311612	0.04323394
3	0xbd041406	-0.03224566
4	0x3cbc3d88	0.02297856
5	0x3d4ce119	0.050019357
6	0x3d840fc0	0.064483166
7	0x3b2619b4	0.002534491
8	0x3cf61c90	0.030042917
9	0x3beecf87	0.007287923

arr_4 f4 [20, 20, 3]
0	0x3d78cb0b	0.060740512
1	0x3e3cfc55	0.18455632
2	0x3e8495c5	0.25895515
3	0xbe7bd468	-0.24592745
4	0xbeb2e905	-0.34943405
5	0x3cb2d43d	0.021829719
6	0x3e83fe57	0.25779983
7	0x3f321e2d	0.69577295
8	0x3eac9fe7	0.33715746
9	0xbd5f9fac	-0.054595634
10	0xbe13d388	-0.14436162
11	0xbe09ee47	-0.13469802
12	0xbe468c6d	-0.19389506
13	0xbe380778	-0.17971599
14	0xbe1196a4	-0.14217621
15	0x3e8ae816	0.27130193
16	0x3d6ba3a8	0.05752912
17	0x3eb2120b	0.3477939
18	0x3dec1378	0.11527151
19	0xbe8ddd66	-0.27707976
20	0x3d18d0ef	0.03730863
21	0x3d9ab092	0.07553209
22	0x3d1a36b5	0.03764983
23	0xbd817b5d	-0.06322358
24	0xbea5c067	-0.32373354
25	0xbe944657	-0.28959915
26	0xbed28147	-0.41114256
27	0x3ea4011a	0.3203209
28	0x3de5e87c	0.112259835
29	0x3e06c61c	0.1316151
30	0x3ca9e507	0.020739092
31	0xbd2c37c7	-0.04204538
32	0x3da38d59	0.07985944
33	0x3eb44fab	0.35217032
34	0x3d86c985	0.065814056
35	0x3e674b8c	0.22587413
36	0xbe3d9f05	-0.18517692
37	0xbe1b75fd	-0.15181728
38	0xbe958e36	-0.2921006
39	0x3ee36a2c	0.4441694
40	0xbc02eedc	-0.007991519
41	0x3eb23f16	0.34813756
42	0xbe643809	-0.22287
43	0xbe719e15	-0.2359546
44	0xbe91a354	-0.28444922
45	0x3d6ac30d	0.05731492
46	0xbe92a62b	-0.286424
47	0xbe7799df	-0.24179791
48	0x3e321f68	0.17394793
49	0x3de1eb6c	0.11031231
50	0xbded046a	-0.115731075
51	0x3ed1d4f5	0.40982786
52	0x3eed50db	0.4635075
53	0x3e76b093	0.24090795
54	0x3da8573b	0.08219763
55	0xbdfc65bb	-0.12324091
56	0xbe3af661	-0.18258049
57	0xbe2c9629	-0.16854157
58	0xbefdbb7d	-0.49557105
59	0xbed40df9	-0.4141691
60	0xbe0d6a4d	-0.13810082
61	0xbe7a08f3	-0.24417476
62	0xbe839787	-0.25701544
63	0xbe4dcc24	-0.20097405
64	0xbd0b8fcd	-0.034072686
65	0x3d078502	0.03308583
66	0xbeb074c5	-0.34464088
67	0xbeb9805b	-0.3623074
68	0xbe0df8aa	-0.13864389
69	0x3ea9b93a	0.3314913
70	0x3e2521ce	0.16126177
71	0x3e5e792f	0.21725915
72	0x3ebae6ce	0.36504215
73	0x3e8287d8	0.25494266
74	0xbd8caa75	-0.068684496
75	0xbd2bedd2	-0.04197485
76	0xbe858ca8	-0.26083875
77	0xbe3adfd9	-0.18249454
78	0xbd41250c	-0.04715447
79	0xbe2ccb5b	-0.16874449
80	0xbca8ae0c	-0.020590805
81	0x3d8278a1	0.063706644
82	0x3a01c055	0.0004949619
83	0xbe435b74	-0.19077855
84	0x3ebb3eac	0.36571252
85	0x3e7a18d7	0.24423538
86	0x3eb1b2a8	0.34706616
87	0x3deb16cf	0.1147896
88	0x3e1bf028	0.15228331
89	0xbd0b10c0	-0.03395152
90	0x3e2866f8	0.1644553
91	0x3c86ac8f	0.016439704
92	0x3e57a0d9	0.21057452
93	0xbe34ddcb	-0.17662732
94	0xbe80a78f	-0.25127837
95	0xbe92d2be	-0.2867641
96	0x3d74657d	0.0596671
97	0x3d47dbcb	0.048793595
98	0x3da03cf4	0.07824126
99	0xbe77e2ac	-0.24207562
100	0x3d81e0bd	0.063416936
101	0x3e3c721c	0.18402904
102	0x3e955433	0.291658
103	0x3ef02f08	0.46910882
104	0x3e420e41	0.1895075
105	0x3dc39151	0.09549201
106	0x3e52df11	0.20592906
107	0x3d62dd71	0.055386964
108	0x3eade256	0.33961743
109	0x3e2d0977	0.16898142
110	0x3e732fbb	0.23748676
111	0x3cf381be	0.029724952
112	0x3e978a7c	0.29597843
113	0x3e370dc3	0.17876343
114	0xbcbe78aa	-0.023250896
115	0x3e16f172	0.14740542
116	0xbd2cadeb	-0.04215805
117	0xbe54fbfe	-0.20799252
118	0x3cb34f7f	0.021888493
119	0x3dd3b562	0.103373304
120	0x3ec1fa13	0.37886104
121	0x3e99a646	0.3000967
122	0xbdced197	-0.1009857
123	0x3edf982d	0.43670788
124	0x3d0a8941	0.0338223
125	0x3ea74153	0.32667026
126	0xbef10aa2	-0.47078425
127	0xbed45f0a	-0.4147876
128	0xbe036c51	-0.12834288
129	0x3e270489	0.16310324
130	0xbe3e8b78	-0.1860789
131	0x3c6799c9	0.014135786
132	0x3f176417	0.591371
133	0x3f1d1f3c	0.61375785
134	0x3e9fe757	0.31231186
135	0x3e41fc33	0.18943863
136	0xbe21c849	-0.15799059
137	0xbe5e885f	-0.21731709
138	0xbddacc13	-0.10683455
139	0xbdf4cce5	-0.11953143
140	0xbc335d74	-0.010947574
141	0xbd341c5d	-0.04397236
142	0xbeb5a3a3	-0.35476407
143	0xbf009ea6	-0.5024208
144	0x3eba4a73	0.36384925
145	0x3eb0d0b4	0.34534228
146	0x3cf87bff	0.030332563
147	0xbe82c542	-0.2554112
148	0xbee040f0	-0.43799543
149	0xbf29abe8	-0.66277933
150	0xbe860115	-0.261727
151	0xbe80bf7d	-0.25146094
152	0xbf462ec1	-0.7741509
153	0xbd863ec6	-0.06554942
154	0x3de41127	0.11136084
155	0xbe806c1b	-0.25082478
156	0x3e033165	0.12811811
157	0xbd6bf63a	-0.057607867
158	0xbe8209d5	-0.25398126
159	0x3e1232f2	0.14277247
160	0xbe230629	-0.15920319
161	0xbe8231e6	-0.25428694
162	0xbe856c9b	-0.26059422
163	0x3e1ddfe0	0.15417433
164	0xbe9d455e	-0.30716985
165	0xbded2b7d	-0.1158056
166	0x3e90f4b8	0.28311706
167	0xbe0340f0	-0.1281774
168	0xbf5b2056	-0.85596216
169	0xbf850a37	-1.0393742
170	0xbf614a30	-0.88003826
171	0x3da09753	0.07841363
172	0xbe7c3dc6	-0.2463294
173	0xbe72ac3e	-0.23698518
174	0xbd74ec53	-0.05979569
175	0x3e8ac443	0.2710286
176	0x3c5f59e3	0.0136322705
177	0x3f0cbbf9	0.54974324
178	0x3ea70937	0.32624218
179	0xbd350163	-0.044190776
180	0xbe256a22	-0.16153768
181	0xbe7b9971	-0.24570252
182	0xbed35cbc	-0.41281688
183	0xbd6fdfc0	-0.058562994
184	0x3ddcf772	0.10789384
185	0xbc1b9f8e	-0.00949849
186	0xbeb02820	-0.34405613
187	0xbe199042	-0.14996436
188	0xbec78362	-0.38967425
189	0x3ce5535b	0.027993849
190	0x3eb8cfca	0.3609603
191	0xbdc1ad3b	-0.09456869
192	0xbd4969ba	-0.049173094
193	0x3eb03021	0.3441172
194	0x3d687a9b	0.05675755
195	0xbea66699	-0.3250015
196	0xbe809387	-0.25112554
197	0xbea83c4e	-0.3285851
198	0xbe286fa2	-0.16448835
199	0xbd29c434	-0.04144688
200	0x3d640beb	0.05567543
201	0x3e5cdd5c	0.21568817
202	0x3e0e8ca0	0.13920832
203	0xbe5695fe	-0.20955655
204	0x3e4070fb	0.18793099
205	0x3e140796	0.14456019
206	0x3e8426bc	0.25810802
207	0x3e769040	0.24078465
208	0xbca6a585	-0.020342598
209	0xbd74bd99	-0.059751127
210	0x3dc2db06	0.09514432
211	0x3e92e841	0.2869282
212	0x3da02657	0.07819813
213	0x3d4efd11	0.05053431
214	0xbd2b309f	-0.041794416
215	0xbdcf69a8	-0.10127574
216	0x3dcb5465	0.09928206
217	0x3d86f984	0.0659056
218	0xbdbf452e	-0.09339367
219	0xbd948a9d	-0.07253001
220	0x3ce38838	0.027774915
221	0xbe2b00e1	-0.16699554
222	0x3e800de1	0.2501059
223	0xbd2b47f9	-0.041816685
224	0xbd872e4b	-0.066006266
225	0x3eaffa7c	0.34370792
226	0x3e46952e	0.19392845
227	0x3ddcdacf	0.10783922
228	0x3e5b17f4	0.21395856
229	0x3dc795df	0.097453825
230	0xbe31cec3	-0.1736403
231	0x3cb37472	0.021906111
232	0xbea2bceb	-0.31784758
233	0xbe0f9212	-0.14020565
234	0xbc2d1549	-0.010564157
235	0xbc3eb170	-0.011638984
236	0x3e342223	0.17591147
237	0xbe2b1661	-0.16707756
238	0xbd78d819	-0.06075296
239	0xbd88befa	-0.06677051
240	0xbdf761f9	-0.12079234
241	0x3e458efd	0.19292827
242	0xbbec01c1	-0.0072023575
243	0x3e0cd4e1	0.13753082
244	0x3e900929	0.2813199
245	0x3ec02ab4	0.3753258
246	0x3e875575	0.26432386
247	0x3e8396f6	0.25701112
248	0x3d852b35	0.06502382
249	0x3e0a780b	0.13522355
250	0xbe9b987b	-0.3038977
251	0xbea3d7e1	-0.3200064
252	0xbc0e92e5	-0.008702015
253	0x3e39b75a	0.1813635
254	0x3d7a2cb1	0.061077777
255	0xbd751a8c	-0.05983977

arr_5 f4 [20]
0	0x3dfc419c	0.123172015
1	0x3cfbfb75	0.030759552
2	0x3e5ca7ba	0.21548358
3	0x3dc46bf6	0.095909044
4	0x3cf930da	0.030418802
5	0x3d1acc99	0.037792776
6	0x3c9ab6e6	0.01888604
7	0x3b3b0af3	0.0028540462
8	0x3d823e68	0.06359559
9	0xbd9139eb	-0.07091125
10	0x3d81ab0c	0.06331453
11	0xbb948d79	-0.0045334664
12	0x3d7e41dc	0.062074527
13	0x3daac0f2	0.08337583
14	0x3b99b6da	0.004690987
15	0x3d729069	0.05921975
16	0x3b7e9ebc	0.0038851937
17	0x3d826101	0.06366158
18	0x3d1dd638	0.038534373
19	0x3d57e55b	0.052708965

arr_6 f4 [20, 15]
0	0xbd7f69df	-0.062356826
1	0x3dcd64c0	0.10028982
2	0x3f3746ac	0.7159221
3	0x3e596491	0.2122977
4	0x3e85eb32	0.26156002
5	0xbe8473f2	-0.2586971
6	0x3e958e69	0.29210213
7	0x3e7bc117	0.24585377
8	0x3d30823d	0.043092955
9	0x3e8b7cd1	0.27243665
10	0x3e9ddd20	0.30832767
11	0xbdbdb28d	-0.092625715
12	0xbd81c540	-0.063364506
13	0x3f0e1dbe	0.5551413
14	0x3deabfee	0.11462389
15	0x3e0accd6	0.13554701
16	0x3e2cafea	0.16863981
17	0x3e23823c	0.15967649
18	0x3e4027d4	0.18765193
19	0x3e9fde87	0.31224462
20	0x3e8afee2	0.27147585
21	0x3e622fcf	0.2208855
22	0x3dc1cc8b	0.094628416
23	0xbe79ed9c	-0.24407047
24	0x3ec9b75f	0.39397714
25	0x3dd17a20	0.102283716
26	0xbe568863	-0.20950465
27	0xbc61765c	-0.013761129
28	0xbe060c10	-0.13090539
29	0x3e9e394c	0.3090309
30	0xbe622373	-0.22083835
31	0x3ef39c08	0.4757998
32	0x3de7e8fb	0.113237344
33	0x3d731fb0	0.05935639
34	0x3e019c24	0.12657219
35	0xbe0f4bef	-0.1399381
36	0x3d66a73f	0.056311842
37	0x3c2c7b10	0.010527387
38	0x3db4e83b	0.08833357
39	0x3e515940	0.20444202
40	0xbef79ce7	-0.48361894
41	0x3ee44e34	0.44590914
42	0xbe57b346	-0.21064481
43	0xbea3af00	-0.31969452
44	0x3e4750fd	0.19464488
45	0xbd01326e	-0.031542234
46	0x3d3c91eb	0.046037596
47	0x3e88d97a	0.2672842
48	0xbe22bbe2	-0.15891984
49	0x3e05055f	0.1299033
50	0x3d426e2a	0.047468342
51	0x3e432823	0.1905828
52	0xbdcb3674	-0.099224955
53	0x3d517140	0.051133394
54	0x3e86ca7f	0.26326367
55	0x3d68e575	0.056859452
56	0xbe2d6978	-0.16934764
57	0xbe99bcc0	-0.30026817
58	0xbdc21083	-0.094758056
59	0x3ddee131	0.108827956
60	0x3d70cda1	0.058789853
61	0x3d60ed8f	0.054914054
62	0x3e9dc4c0	0.3081417
63	0x3e3067ee	0.17227146
64	0x3ea47905	0.3212358
65	0x3e6be5ca	0.23036876
66	0x3cdfd92e	0.027325239
67	0x3ee1ab03	0.44075784
68	0x3ddc878b	0.1076804
69	0xbdd0b77f	-0.10191249
70	0x3d86b5a0	0.06577611
71	0x3e19da6f	0.15024732
72	0x3d47a6ff	0.048743244
73	0x3e5e0ec5	0.21685322
74	0x3c83e401	0.016099932
75	0x3e837b2e	0.25679916
76	0xbe0d2071	-0.13781907
77	0x3cc77a93	0.02435044
78	0xbe7d6756	-0.24746451
79	0x3de33f05	0.110960044
80	0x3e7af581	0.24507715
81	0x3e5f87b3	0.21829109
82	0x3ddd62e4	0.108098775
83	0xbe850b13	-0.2598501
84	0x3e0e093c	0.1387071
85	0x3d8b7310	0.06809056
86	0xbe179c6e	-0.14805767
87	0xbc8debfc	-0.01732444
88	0x3e306b71	0.17228486
89	0x3dc3199d	0.0952637
90	0x3ed5de6e	0.41771263
91	0xbe7cd3fd	-0.24690242
92	0x3d4deb2b	0.0502731
93	0x3f2899fe	0.65859973
94	0x3ef14d7a	0.47129422
95	0x3db8f687	0.09031396
96	0x3f053e89	0.52048546
97	0x3f0aee13	0.5426952
98	0xbe54479f	-0.20730446
99	0x3d93d518	0.07218379
100	0x3ed65e83	0.41868982
101	0xbe116f9f	-0.14202736
102	0x3ed0773d	0.40715972
103	0xbf00dd42	-0.5033761
104	0xbea953b5	-0.33071676
105	0x3e387f8a	0.18017402
106	0xbe238c1d	-0.15971418
107	0x3e8094f8	0.25113654
108	0x3c407a33	0.011747885
109	0x3d6db1f6	0.058031045
110	0x3e5a528b	0.2132055
111	0x3db93484	0.0904322
112	0x3df143b9	0.11780495
113	0x3ad5be61	0.0016307348
114	0x3e408cfd	0.18803783
115	0xbe5c51ab	-0.21515529
116	0x3c8388a5	0.016056368
117	0xbd513170	-0.051072538
118	0x3ddb780e	0.10716258
119	0xbda06fef	-0.0783385
120	0x3e89df61	0.26928237
121	0x3d84d9bf	0.06486844
122	0xbc07e94b	-0.0082953675
123	0xbe85bf29	-0.26122406
124	0x3df3c952	0.11903633
125	0xbdaee997	-0.085406475
126	0x3e6a6618	0.22890508
127	0x3cd887c1	0.02643192
128	0xbe82c7ea	-0.25543147
129	0x3e92209d	0.28540507
130	0xbb3021c0	-0.0026875585
131	0xbe4823c4	-0.19544894
132	0xbe795fe8	-0.24352992
133	0x3de20f70	0.11038101
134	0x3d78f564	0.060780898
135	0x3c96f013	0.018425023
136	0x3c54f5dd	0.0129980715
137	0x3d54328f	0.05180603
138	0xbb9d69c0	-0.004803866
139	0xbd6fd7a2	-0.058555253
140	0xbe7bbf08	-0.24584591
141	0x3e0aae84	0.13543135
142	0xbdd365e5	-0.10322169
143	0xbbb61a06	-0.0055573015
144	0xbcc20961	-0.023686113
145	0x3d77361c	0.060354337
146	0xbe2aedef	-0.16692327
147	0x3dde34e1	0.108499296
148	0x3c8bd511	0.017069371
149	0x3d3b5183	0.045732033
150	0x3e1fc0a9	0.15600838
151	0xbde7937a	-0.11307426
152	0x3d9d11ed	0.07669435
153	0xbe92adcd	-0.28648224
154	0x3d537469	0.05162469
155	0xbd8f2bb5	-0.06990758
156	0x3e3d0277	0.18457972
157	0x3eb4491a	0.35212022
158	0xbe894669	-0.2681153
159	0x3eb3fed8	0.35155368
160	0x3e86761c	0.26261985
161	0x3e2d8530	0.16945338
162	0xbec97401	-0.39346316
163	0x3ea8895c	0.32917297
164	0x3ebc5129	0.3678067
165	0x3e5fbaad	0.21848555
166	0xbe0b0daf	-0.13579439
167	0x3ed1a229	0.4094403
168	0x3ed2a877	0.41144153
169	0x3e1f3ecb	0.15551297
170	0x3e632581	0.22182275
171	0x3dee7259	0.11642904
172	0x3e6815a6	0.22664508
173	0x3df8490c	0.121233076
174	0x3e91a6eb	0.2844766
175	0xbe591817	-0.21200596
176	0x3d24410b	0.040101092
177	0x3de49509	0.11161239
178	0xbe928a20	-0.28621006
179	0xbccc30f9	-0.024925696
180	0x3df972c4	0.12180093
181	0x3e12dc70	0.14341903
182	0x3e99a04f	0.30005118
183	0xbc4ebbac	-0.012617987
184	0x3e248d9f	0.16069649
185	0xbdd6640f	-0.104683034
186	0x3e75bcf0	0.23997855
187	0x3e4a40c4	0.19751269
188	0xbe0316c5	-0.12801655
189	0x3ddcb7b1	0.10777224
190	0xbe86b0fd	-0.26306906
191	0xbe0d886a	-0.13821569
192	0xbd9688d1	-0.073503144
193	0xbd8f4ac2	-0.06996681
194	0xbb997ebe	-0.0046842983
195	0xbe000362	-0.1250129
196	0x3ec19e5a	0.37816125
197	0x3e7140b6	0.23559842
198	0x3d8a8938	0.06764454
199	0x3e9b5b97	0.30343315
200	0x3d41a2b8	0.04727432
201	0xbdd1687a	-0.102250054
202	0x3eb02e08	0.3441012
203	0x3e10b57b	0.1413173
204	0x3ea22b7e	0.31673807
205	0xbde2136f	-0.11038863
206	0x3e7dbdb1	0.24779393
207	0xbe8e280e	-0.27764934
208	0x3e715c4b	0.23570363
209	0x3df517a7	0.11967402
210	0x3e049fa4	0.12951523
211	0xbc35ba63	-0.011091801
212	0x3b8ec1cd	0.004356599
213	0xbecef071	-0.40417817
214	0xbe4433b8	-0.19160354
215	0x3ce0be1e	0.027434405
216	0x3b93c1ae	0.0045091724
217	0xbdc54031	-0.09631384
218	0xbf1fcb3c	-0.62419486
219	0x3e38b747	0.18038665
220	0xbef317ad	-0.47479
221	0xbe3237f7	-0.17404161
222	0xbe187595	-0.14888604
223	0x3e4892df	0.19587277
224	0xbd8f356e	-0.06992613
225	0x3e8b01e2	0.27149874
226	0xbd71b2d4	-0.059008434
227	0xbe35b2d3	-0.17743997
228	0xbe935e42	-0.2878285
229	0xbcfed571	-0.031107636
230	0xbde42747	-0.11140304
231	0xbe99f7fb	-0.30072007
232	0xbe401d0e	-0.18761083
233	0xbecb9207	-0.39759848
234	0x3ec1a61b	0.3782204
235	0xbe9d7790	-0.3075528
236	0xbb122d6d	-0.0022304908
237	0xbe057aa9	-0.13035072
238	0x3eeb19ab	0.4591802
239	0x3ea34a35	0.31892553
240	0x3e3f9b39	0.18711556
241	0xbd46cb49	-0.04853371
242	0x3f114c1b	0.5675675
243	0x3e3cdd80	0.1844387
244	0x3eaf63e5	0.342559
245	0xbe24b710	-0.16085458
246	0x3e157335	0.14594729
247	0x3e83321d	0.2562417
248	0x3ba362fa	0.004986164
249	0xbc98db63	-0.0186593
250	0xbef65f61	-0.48119643
251	0xbe357610	-0.17720819
252	0xbd1adcb4	-0.037808135
253	0xbe9cf07e	-0.3065223
254	0xbc975e58	-0.018477604
255	0x3e93aeec	0.28844392

arr_7 f4 [15, 15]
0	0x3cc0fdae	0.023558464
1	0xbe49498d	-0.19656964
2	0xbe304e16	-0.17217287
3	0xbcbc76d2	-0.023005877
4	0xbdb43250	-0.08798659
5	0x3e38ed13	0.18059187
6	0xbd8e6047	-0.06951957
7	0x3bbebf6c	0.005821159
8	0x3c5307a9	0.012880244
9	0x3d26c523	0.040715348
10	0x3df11e26	0.117733285
11	0xbe26abcb	-0.16276471
12	0x3d007a94	0.0313669
13	0x3f0fdc00	0.5619507
14	0x3e3c8b1d	0.18412443
15	0xbd3a9e56	-0.045561157
16	0x3c96bfe4	0.018402047
17	0x3dc901d7	0.09814804
18	0x3de049ac	0.10951552
19	0x3e493303	0.19648366
20	0x3ec0d534	0.3766266
21	0xbd407720	-0.046988606
22	0x3ead1b7c	0.3381003
23	0xbc7f308a	-0.015575537
24	0x3eeb520a	0.45961028
25	0xbe4e9e33	-0.20177536
26	0x3e670776	0.2256144
27	0xbd68aa12	-0.056802817
28	0x3d7db120	0.061936498
29	0xbd203508	-0.039113075
30	0xbe63cf3a	-0.2224702
31	0xbe400d2a	-0.18755022
32	0xbe1b180d	-0.15145893
33	0x3dff2b7f	0.12459468
34	0xbe5c69c6	-0.21524724
35	0xbc4bba11	-0.012434498
36	0xbd245cd0	-0.040127575
37	0xbbbd33e6	-0.005774009
38	0xbe03dbb2	-0.12876776
39	0xbe3ac4c0	-0.18239117
40	0x3d441a6b	0.047876757
41	0x3d83e980	0.06441021
42	0x3d1676ae	0.036734276
43	0x3d179189	0.037004028
44	0x3daf2bb7	0.0855326
45	0xbd22c3f4	-0.039737657
46	0x3e35e929	0.17764725
47	0x3eaf0f74	0.34191477
48	0xbd1581bc	-0.036500677
49	0x3eb9c1ce	0.36280674
50	0x3d84c336	0.06482546
51	0x3db7287a	0.08943267
52	0x3b49744b	0.0030739482
53	0xbe8daddd	-0.2767171
54	0xbde500c2	-0.11181785
55	0x3ea9af7b	0.33141693
56	0xbdad9d95	-0.08477322
57	0xbdfa0b6d	-0.122092105
58	0x3e388b07	0.18021785
59	0x3dd37826	0.10325651
60	0xbebaf3d5	-0.36514154
61	0xbe198ec2	-0.14995864
62	0xbdfed7f9	-0.12443537
63	0xbeb0a6f5	-0.34502378
64	0xbe212981	-0.15738489
65	0xbe456df6	-0.19280228
66	0x3ab8cb46	0.0014098666
67	0x3d3b4404	0.04571916
68	0x3d868e2f	0.06570088
69	0x3d9f31fd	0.077732064
70	0xbe52d9e8	-0.20590937
71	0xbdb03de1	-0.086055525
72	0x3dd5ba15	0.10435883
73	0xbd954153	-0.0728785
74	0x3d9fa28a	0.07794674
75	0x3c96ec96	0.01842336
76	0x3e11eb73	0.14249973
77	0xbe7c541d	-0.24641462
78	0x3ce59dfe	0.028029438
79	0xbd22c57a	-0.03973911
80	0x3e85dfa0	0.26147175
81	0x3e9532a4	0.29140198
82	0x3d54f638	0.051992625
83	0x3da9ecd9	0.08297128
84	0x3f2773e3	0.65411204
85	0xbd2219ee	-0.03957551
86	0xbddde25c	-0.1083419
87	0x3e0d6ed1	0.13811804
88	0xbdfea773	-0.12434282
89	0xbe99d83e	-0.30047792
90	0x3e2556d2	0.161464
91	0xbc33f48c	-0.0109835975
92	0x3ed1e45f	0.40994546
93	0x3e458a99	0.19291152
94	0x3d9e40df	0.07727217
95	0x3e5d0085	0.2158223
96	0x3e25f379	0.16206159
97	0x3e1a4a2f	0.15067361
98	0xbeb7d0de	-0.3590154
99	0x3e031f4b	0.12804906
100	0x3dfbc504	0.12293437
101	0xbda5f98e	-0.081042394
102	0x3df7212a	0.120668724
103	0xbc932db5	-0.01796613
104	0x3ec1e089	0.3786662
105	0x3e6f8e1d	0.23394056
106	0x3e2351cf	0.15949176
107	0x3d22da8c	0.039759204
108	0xbd245330	-0.040118396
109	0x3de0221c	0.10944006
110	0x3e9b5746	0.30340022
111	0xbbb538ce	-0.0055304533
112	0xba4e6e0a	-0.00078746735
113	0xbe03b76e	-0.12862942
114	0x3e1938c0	0.14963055
115	0x3c16ee6c	0.009212118
116	0x3e2740d3	0.16333322
117	0x3c00e1fa	0.007866377
118	0x3cedecd8	0.0290436
119	0xbdf6fe22	-0.12060191
120	0x3eaa29b4	0.33234942
121	0x3da26aa8	0.07930499
122	0xbe8f3272	-0.27968174
123	0xbea6a73b	-0.32549462
124	0xbdcce277	-0.10004132
125	0xbdc83b2e	-0.09776913
126	0x3d77e72a	0.06052319
127	0xbeb682c4	-0.3564664
128	0xbd05f3b5	-0.03270312
129	0xbe007f4e	-0.12548563
130	0xbdb5498e	-0.0885192
131	0x3c020a98	0.007937096
132	0xbe9f3e26	-0.31102103
133	0xbc918d0e	-0.017767455
134	0xbe257289	-0.16156973
135	0xbe9f8ab6	-0.31160516
136	0xbd85d63b	-0.06535002
137	0xba026e09	-0.0004975503
138	0x3e119288	0.14216053
139	0xbd48d25a	-0.049028732
140	0x3e0596f5	0.13045867
141	0x3e704f98	0.23467863
142	0x3ec52f21	0.3851252
143	0x3db504f6	0.08838837
144	0x3d094ca1	0.033520345
145	0x3e201e35	0.15636523
146	0xbe49a798	-0.19692838
147	0x3eab6b2e	0.3348021
148	0xbe6d96e1	-0.23202087
149	0xbe863897	-0.2621505
150	0x3ddfecf6	0.109338686
151	0x3dc0755d	0.09397385
152	0x3e958b6e	0.2920794
153	0x3e212da9	0.15740074
154	0x3d2b76af	0.041861232
155	0x3e1aa266	0.15101013
156	0x3cf2cf39	0.029639827
157	0xbca04881	-0.019565823
158	0xbf05fe97	-0.523416
159	0x3d755d30	0.059903324
160	0x3e25d2b1	0.16193654
161	0xbd2f3422	-0.042774327
162	0xbda435e2	-0.0801809
163	0x3eefb765	0.46819606
164	0x3eb487ee	0.35259956
165	0xbe9dca0c	-0.30818212
166	0x3d7dd7d0	0.061973393
167	0x3d39579c	0.045249566
168	0x3b668690	0.003517542
169	0x3e3e7324	0.1859861
170	0x3d40e596	0.04709395
171	0x3e2e7885	0.17038162
172	0x3e948102	0.29004675
173	0x3dd0540d	0.101722814
174	0x3e4677d3	0.19381647
175	0xbdb95bf5	-0.090507425
176	0xbe49bdd3	-0.19701318
177	0x3d6734e2	0.056446917
178	0x3d388d05	0.04505636
179	0x3dd8fd01	0.10595132
180	0xbe369021	-0.17828418
181	0xbd78ec1c	-0.060772046
182	0x3e2fd1c0	0.17169857
183	0xbe085474	-0.13313466
184	0xbd1fff25	-0.039061684
185	0xbe34e8ab	-0.17666881
186	0x3e0713c5	0.13191135
187	0xbe17e5e6	-0.14833793
188	0xbd3050c1	-0.043045763
189	0xbe29f76d	-0.16598292
190	0x3e928c0c	0.28622472
191	0xbe164b4a	-0.14677158
192	0x3e40b846	0.18820295
193	0x3ea9790e	0.3310017
194	0x3ec15fab	0.377683
195	0xbdcb092a	-0.09913857
196	0xbdf2508d	-0.1183177
197	0x3e18ad88	0.14909947
198	0xbda8ae3a	-0.08236356
199	0x3a9bb19c	0.0011878493
200	0xbf0d0bf2	-0.5509635
201	0xbe8228fb	-0.2542189
202	0x3c4fe910	0.012689844
203	0x3cc2d8ff	0.023785112
204	0xbe9525a3	-0.29130277
205	0x3ea7ca0a	0.3277133
206	0x3de75803	0.11296084
207	0xbd29a025	-0.04141249
208	0xbe1cd2d8	-0.15314806
209	0x3e5c620d	0.21521778
210	0xbe46b295	-0.19404061
211	0x3dca1ef1	0.09869183
212	0x3daecbf3	0.08534994
213	0x3ebaedb8	0.3650949
214	0x3e5ad43e	0.21370026
215	0x3e85ae0a	0.26109344
216	0x3ea6e924	0.32599747
217	0x3e37c112	0.17944744
218	0xbe0d17ca	-0.13778606
219	0x3dd600ca	0.10449369
220	0x3dd96a79	0.10616011
221	0xbc239f6a	-0.009986738
222	0xbc6ea9b6	-0.014566829
223	0x3dfb06cd	0.122571565
224	0x3df0f22c	0.117649406

arr_8 f4 [15]
0	0xbca69078	-0.02033256
1	0x3e477c4e	0.19481012
2	0x3e83973e	0.25701326
3	0x3d7ca039	0.061676238
4	0x3e8a0936	0.26960152
5	0x3e1f0311	0.15528513
6	0x3e84951e	0.25895017
7	0x3e90576b	0.28191695
8	0x3de12836	0.10993998
9	0x3ead33db	0.33828625
10	0x3e5817be	0.21102807
11	0x3e0263e8	0.12733424
12	0xbddbd5ce	-0.107341394
13	0x3e830386	0.25588626
14	0x3e4388f2	0.19095209

arr_9 f4 [20, 15]
0	0x3d78d4aa	0.060749687
1	0xbd56f6d5	-0.05248149
2	0x3eb31c75	0.34982648
3	0x3e2dd40d	0.16975422
4	0x3e7e0d1b	0.24809687
5	0xbe873c8d	-0.26413384
6	0x3e43ae28	0.19109404
7	0xbd54012e	-0.051758938
8	0x3dd29545	0.10282377
9	0x3e3163a4	0.17323166
10	0x3d7f6234	0.062349513
11	0x3cb2c01a	0.021820117
12	0x3e84dfc7	0.2595198
13	0xbdae5d50	-0.08513892
14	0xbe8f1859	-0.27948263
15	0x3e50763a	0.203576
16	0x3e9e61d9	0.30934027
17	0x3e880e8d	0.265736
18	0x3ef3ada3	0.47593412
19	0x3dad15b3	0.084514044
20	0x3e7da23d	0.2476892
21	0x3e61dd5b	0.22057097
22	0x3de9a49e	0.11408351
23	0xbe1ab7f8	-0.15109241
24	0x3ed52653	0.41630802
25	0x3d0daea3	0.034590375
26	0x3cbb5a12	0.022870097
27	0x3e8759ef	0.264358
28	0x3d96c53b	0.073618375
29	0xbe1dd70b	-0.15414064
30	0xbd869de9	-0.06573088
31	0x3f13837a	0.5762249
32	0x3ec9d6a4	0.3942157
33	0x3f03130a	0.51200926
34	0xbcf6cc97	-0.030126853
35	0x3d3cbec8	0.04608038
36	0xbdf49af0	-0.119436145
37	0x3e1dc133	0.15405731
38	0x3e1fd4ee	0.1560857
39	0x3cf2fa24	0.029660292
40	0xbe99cc27	-0.30038568
41	0x3eb8f843	0.3612691
42	0x3ea0122e	0.3126387
43	0x3f0e07f2	0.55480874
44	0x3e8ee3d5	0.27908197
45	0x3e81b2f5	0.25331846
46	0x3eddc06b	0.43310866
47	0x3e4d5f77	0.20055948
48	0x3ea59947	0.32343504
49	0x3db44ac8	0.08803326
50	0x3e46b99b	0.1940674
51	0x3d1fbb5f	0.03899705
52	0x3e06a93a	0.13150492
53	0xbdd74c96	-0.105126545
54	0x3f16d1e1	0.58914
55	0x3deaf8ac	0.11473212
56	0xbd70917f	-0.058732506
57	0x3e27cf08	0.1638757
58	0x3e14596f	0.14487241
59	0xba4ccd2a	-0.0007812554
60	0x3de5e2e8	0.112249196
61	0x3e3c3df6	0.18383011
62	0x3dfec856	0.12440555
63	0x3e24d91d	0.16098447
64	0xbc223dba	-0.009902412
65	0x3e233963	0.1593986
66	0xbe48a51e	-0.19594237
67	0x3e54cf3e	0.20782182
68	0x3e0f1586	0.13973054
69	0xbda4fa89	-0.08055598
70	0x3c4ff756	0.012693247
71	0x3dd50010	0.104004025
72	0x3e6321c2	0.22180846
73	0x3ed551dd	0.4166402
74	0x3bb3f061	0.005491302
75	0x3e96cd07	0.29453298
76	0x3da29a34	0.07939568
77	0x3ea1cda7	0.31602213
78	0x3e831f06	0.25609607
79	0x3e57f7ff	0.21090697
80	0x3e68e828	0.2274481
81	0x3d7cee2d	0.06175058
82	0x3e095323	0.1341062
83	0xbed32f00	-0.41246796
84	0x3ed95a93	0.42451915
85	0x3cec3e9a	0.028838445
86	0xbe4cc0db	-0.19995444
87	0x3ee68c55	0.4502894
88	0x3d7bc474	0.06146665
89	0xbdfd2147	-0.12359863
90	0x3ea63894	0.3246504
91	0xbaedec16	-0.0018152024
92	0x3ecc4a0a	0.39900237
93	0x3f111a15	0.56680423
94	0x3e7788df	0.24173306
95	0x3e1ffa5d	0.1562285
96	0x3e978a90	0.29597902
97	0x3e6c3402	0.23066714
98	0xbdf522eb	-0.11969551
99	0xbdc16857	-0.09443729
100	0x3e8822cd	0.2658905
101	0xbeb48def	-0.35264537
102	0x3f09d504	0.5384066
103	0xbf549ac5	-0.8304866
104	0xbe28cfe7	-0.16485558
105	0x3d70c8d0	0.05878526
106	0x3de3a649	0.11115701
107	0x3e8253be	0.25454515
108	0x3dfbf480	0.12302494
109	0x3d723532	0.059132762
110	0xbe4dadc6	-0.2008582
111	0x3d1dd627	0.03853431
112	0x3e871283	0.2638131
113	0x3d94bd49	0.07262666
114	0x3ed32e40	0.41246223
115	0xbee311e9	-0.44349602
116	0xbcd18111	-0.025574239
117	0x3d0e599e	0.034753434
118	0x3ea27405	0.3172914
119	0xbe060fa9	-0.13091911
120	0x3e880e08	0.26573205
121	0x3f023d49	0.50874764
122	0x3e950678	0.29106498
123	0x3da3bc36	0.07994883
124	0x3b046ecf	0.0020207649
125	0x3e9ba990	0.30402803
126	0x3d1e69cf	0.038675126
127	0x3dfe3ab8	0.124135435
128	0xbdda555c	-0.10660812
129	0x3f0b7262	0.5447141
130	0x3e8078c2	0.2509213
131	0xbe32aceb	-0.17448775
132	0x3e297cb6	0.1655148
133	0xbb9e8fdd	-0.004838927
134	0x3e61b09e	0.2204003
135	0x3c4debb5	0.012568404
136	0x3d2a8783	0.04163314
137	0x3ddd7178	0.10812658
138	0xbda580a3	-0.08081176
139	0x3d6c2235	0.05764981
140	0xbd4fc0f4	-0.050721124
141	0x3e1f954b	0.15584294
142	0x3e23d7c6	0.1600028
143	0x3d729dda	0.05923257
144	0x3e4d00e4	0.20019871
145	0x3ddff619	0.10935611
146	0xbcad71f7	-0.021172507
147	0xbc678030	-0.014129683
148	0xbe2cf2ee	-0.16889545
149	0x3dbe13b2	0.092811
150	0x3e6314ae	0.22175857
151	0x3ec7447d	0.3891944
152	0x3e2a9830	0.16659617
153	0x3e14d91f	0.1453595
154	0x3e23c559	0.15993251
155	0xbdf6bd96	-0.120478794
156	0xbcb68be8	-0.02228351
157	0x3e8d6ada	0.27620584
158	0x3d98b7fd	0.07456968
159	0x3e687efc	0.2270469
160	0xbd2aa478	-0.041660756
161	0x3da82582	0.08210279
162	0x3e1eef49	0.15520968
163	0x3e581186	0.21100435
164	0x3ccdcd5a	0.025122333
165	0xbcccd243	-0.025002604
166	0x3e9f3b46	0.3109991
167	0x3edb4a9a	0.42830354
168	0x3e952404	0.2912904
169	0xbd8fcf89	-0.07022006
170	0x3eb2048a	0.34769088
171	0x3d77ad7f	0.060468193
172	0x3e2f0acb	0.17093961
173	0xbe13bce6	-0.14427528
174	0x3e1de1ec	0.15418214
175	0xbeb6a750	-0.35674524
176	0x3e0b57a4	0.13607651
177	0x3e47cfd4	0.19512874
178	0xbebb18cb	-0.36542353
179	0xbde39bbf	-0.111136906
180	0x3cee5d50	0.02909723
181	0x3efc8053	0.49316654
182	0x3ed2c55f	0.41166207
183	0x3e909205	0.28236404
184	0x3c862f6b	0.016380033
185	0x3e6f180f	0.23349021
186	0xbc831f6b	-0.016006192
187	0x3e98d2df	0.29848382
188	0xbdeb7264	-0.11496428
189	0x3e7b889d	0.24563833
190	0xbeb62c2c	-0.35580575
191	0xbcef4ed0	-0.029212385
192	0x3e8c159b	0.27360234
193	0x3d52231d	0.051303018
194	0x3e977947	0.29584715
195	0xbe5563f8	-0.20838916
196	0x3e84c9f1	0.2593532
197	0x3e4fa6a8	0.20278418
198	0x3e877367	0.26455233
199	0x3e101451	0.1407025
200	0xbe1e31df	-0.15448712
201	0xbe632356	-0.22181448
202	0x3e6f29f5	0.23355849
203	0x3e0a5625	0.13509424
204	0xbe0c3312	-0.13691357
205	0xbdec7d9f	-0.11547398
206	0x3da7f73f	0.08201455
207	0x3c128f85	0.008945351
208	0x3d2b74c4	0.041859403
209	0x3ea69b26	0.32540244
210	0x3dbb6786	0.09150605
211	0xbd41d8f4	-0.047326043
212	0x3de6e852	0.1127478
213	0x3e8d7a35	0.276323
214	0xbd746f52	-0.059676476
215	0xbdb34cdc	-0.08754894
216	0xbddcfc26	-0.10790281
217	0x3e388064	0.18017727
218	0xbe9d3892	-0.30707222
219	0x3e9455f4	0.28971827
220	0xbdfaec3e	-0.12252091
221	0xbdb83382	-0.08994199
222	0xbd5f3b9a	-0.0545002
223	0x3d861951	0.065477975
224	0xbd89844a	-0.06714685
225	0x3e1a65c8	0.15077889
226	0x3dc3ceda	0.09560938
227	0x3ec20a5c	0.3789853
228	0x3e8e28a6	0.27765387
229	0xbdb0ea44	-0.086384326
230	0xbef83669	-0.48479012
231	0xbef190fb	-0.47180924
232	0x3e1b4352	0.151624
233	0x3d95d80a	0.07316597
234	0x3e311fea	0.1729733
235	0xbebc81ec	-0.36817873
236	0xbaf2af6b	-0.0018515413
237	0x3e49fb5a	0.1972479
238	0x3ecfa0f2	0.4055248
239	0xbd54e69e	-0.051977746
240	0xbe7160a6	-0.23572025
241	0x3e46f036	0.1942757
242	0x3e386592	0.18007496
243	0x3e7b8cf3	0.24565487
244	0x3e652370	0.223768
245	0xbde6bf55	-0.112669624
246	0x3e7ee9bc	0.2489385
247	0x3ee22002	0.44165045
248	0xbe8a0b3e	-0.26961702
249	0xbe8abd54	-0.2709757
250	0xbea853a3	-0.3287631
251	0xbee79fb2	-0.45239025
252	0x3d78dcdf	0.060757514
253	0xbe6736da	-0.22579518
254	0xbd29d30c	-0.041461036
255	0x3dacb362	0.08432652

arr_10 f4 [15, 15]
0	0x3da17331	0.07883299
1	0xbe128151	-0.14307143
2	0x3d9e3087	0.077240996
3	0xbe8ecc39	-0.27890185
4	0xbcff5850	-0.03117004
5	0xbe99c6cf	-0.3003449
6	0xbcabeae7	-0.020986034
7	0xbd9b410a	-0.075807646
8	0x3e9ddf13	0.30834255
9	0x3da1364b	0.07871684
10	0x3e79bf01	0.24389268
11	0xbcf033b7	-0.029321535
12	0xbd8bb838	-0.06822246
13	0x3d8d67ff	0.06904601
14	0x3e40737e	0.18794057
15	0x3de49fc2	0.11163284
16	0x3b81bcd5	0.003959278
17	0x3cf5678c	0.029956602
18	0x3e7d1d6a	0.24718252
19	0x3e52326f	0.20527051
20	0x3ebd1eb0	0.36937475
21	0xbdf50822	-0.11964442
22	0x3ec36eb2	0.3817039
23	0x3e2f02ac	0.17090863
24	0x3de6b8db	0.11265727
25	0x3bb4b50e	0.0055147475
26	0x3dc0aeb5	0.09408323
27	0x3e8a0148	0.26954103
28	0xbe55ebcc	-0.2089073
29	0xbc7a5004	-0.015277866
30	0x3d5ca584	0.053868786
31	0xbe94cfe0	-0.29064846
32	0xbe45316a	-0.19257131
33	0xbe7bdcb1	-0.24595906
34	0x3d15d3dc	0.036578998
35	0xbd8c6b00	-0.06856346
36	0xbc996a1b	-0.018727353
37	0xbd95ee79	-0.07320876
38	0x3d6f1843	0.058372747
39	0xbdd8e62a	-0.10590775
40	0xbe4709e3	-0.19437365
41	0x3e8cfc6b	0.2753633
42	0x3d80e714	0.06294075
43	0x3e467a9b	0.19382708
44	0x3e976670	0.2957034
45	0xbe3c000e	-0.18359396
46	0xbdbf5fda	-0.09344454
47	0x3e82d864	0.25555718
48	0xbe5341b9	-0.2063054
49	0x3ddd5620	0.10807443
50	0xbe1f6d81	-0.15569116
51	0x3f07655a	0.52889025
52	0xbd590a13	-0.052988123
53	0x3d710906	0.058846496
54	0x3e3e2901	0.18570329
55	0x3e232caf	0.15935014
56	0x3dabc1fc	0.08386609
57	0xbe892f7f	-0.2679405
58	0x3e8b8b76	0.27254838
59	0xbda6e339	-0.08148808
60	0xbe40ae25	-0.18816431
61	0xbece3a1f	-0.40278718
62	0xbe8faa07	-0.28059408
63	0xbe9bd191	-0.30433324
64	0xbc9288fe	-0.017887589
65	0xbe5e4e24	-0.21709496
66	0xbd760247	-0.060060766
67	0x3e93e42b	0.28885016
68	0x3ef739dc	0.4828633
69	0x3daade2a	0.08343156
70	0xbdb8a409	-0.09015662
71	0x3decb4c0	0.11557913
72	0xbe92471f	-0.28569886
73	0xbe410a6c	-0.18851632
74	0x3e5a42c4	0.21314532
75	0x3d7dc8a3	0.06195892
76	0x3e6a153f	0.22859667
77	0x3e5da291	0.21644045
78	0x3e5a2de1	0.21306564
79	0xbda2f620	-0.07957101
80	0x3e03c69a	0.12868729
81	0xbedddbb4	-0.43331683
82	0x3de893a0	0.11356282
83	0xbe3c756d	-0.1840417
84	0x3dc53b74	0.096304804
85	0xbddcd7bd	-0.10783336
86	0xbeb53bbb	-0.35397133
87	0x3e400b15	0.18754227
88	0xbe23867e	-0.15969273
89	0xbe10ccbf	-0.14140604
90	0x3df3cd6c	0.119044155
91	0x3dcab0a2	0.09896971
92	0x3e6cee28	0.23137724
93	0x3e2149e9	0.1575085
94	0xbd1cd267	-0.038286593
95	0x3e8493ec	0.25894105
96	0xbb87dde0	-0.0041463226
97	0x3e24ad31	0.16081692
98	0xbf0ce7a3	-0.5504095
99	0x3e92b29b	0.2865189
100	0xbca0d3e8	-0.019632295
101	0xbe24aa0a	-0.1608049
102	0x3e220f3b	0.15826122
103	0xbc709bbe	-0.014685569
104	0xbe36ab66	-0.17838821
105	0x3dd1acea	0.10238059
106	0x3e8a149c	0.2696885
107	0x3d20767e	0.039175503
108	0x3e8ebd37	0.27878734
109	0xbe2e7081	-0.17035104
110	0x3d2b956c	0.041890547
111	0xbd961b0e	-0.07329379
112	0xbdb97649	-0.09055764
113	0xbec6b03e	-0.38806337
114	0x3ba131b5	0.0049192556
115	0xbd87036c	-0.065924495
116	0xbee70497	-0.4512069
117	0x3d866ad5	0.06563345
118	0xbdacdaf7	-0.08440202
119	0xbe478c99	-0.19487227
120	0x3e8a32c9	0.2699187
121	0xbda313ef	-0.079627864
122	0xbd18720e	-0.037218146
123	0xbe018525	-0.12648447
124	0x3e3fab03	0.1871758
125	0xbe49fe52	-0.19725922
126	0x3d11dabc	0.035608992
127	0xbe747ac4	-0.23874956
128	0x3d62e40e	0.05539327
129	0xbe1d277f	-0.15347098
130	0xbd0d8fdd	-0.034561027
131	0x3ce76384	0.028245695
132	0xbef67599	-0.48136595
133	0xbe071c92	-0.13194492
134	0xbd121e06	-0.035673164
135	0xbe3043f5	-0.17213424
136	0xbdcb2c69	-0.0992058
137	0x3ea56048	0.3230002
138	0x3d568189	0.052369628
139	0xbd1b9517	-0.03798398
140	0x3dec9406	0.11551671
141	0xbe6a97a2	-0.22909406
142	0x3e8d286e	0.27569908
143	0x3e1f23be	0.15540978
144	0x3daeca54	0.08534685
145	0xbe0407de	-0.12893626
146	0x3c9faf76	0.019492846
147	0x3e1e0f0f	0.15435432
148	0xbdb7ae83	-0.08968832
149	0xbd08e5d6	-0.033422314
150	0x3eb0908d	0.34485283
151	0x3eaf4a2b	0.34236273
152	0x3d7f6418	0.062351316
153	0x3dd2e7f2	0.10298146
154	0x3dfca56a	0.12336238
155	0xbd5e6ac9	-0.054301057
156	0x3e6048c9	0.21902765
157	0x3c7bd077	0.015369526
158	0xbf16b5c7	-0.5887112
159	0x3ce4f180	0.027947187
160	0x3e6720d0	0.2257111
161	0xbda9e100	-0.082948685
162	0x3cb3040f	0.021852521
163	0x3ecf6312	0.40505272
164	0x3d9ac6c6	0.07557444
165	0xbee1129f	-0.4395952
166	0xbe216a14	-0.15763122
167	0x3ea6b533	0.3256012
168	0x3d8b70f0	0.068086505
169	0x3daf2677	0.085522585
170	0x3bd69b00	0.006549239
171	0xbce54edc	-0.027991705
172	0x3d919183	0.07107832
173	0x3ea6be68	0.32567143
174	0x3d944b70	0.07240951
175	0xbe9a823e	-0.30177492
176	0x3d30a704	0.04312803
177	0xbdfa6eec	-0.12228188
178	0x3db9426b	0.09045871
179	0xbdfa7e19	-0.122310825
180	0xbe3d23ed	-0.18470736
181	0xbcf41ccd	-0.02979889
182	0xbcd56f06	-0.026053917
183	0xbebbe6ee	-0.36699623
184	0x3e5d7ff8	0.21630847
185	0xbda68fd7	-0.08132904
186	0x3ee23486	0.44180697
187	0xbd9395c5	-0.07206301
188	0x3f0c5269	0.5481325
189	0x3e3e2c6e	0.18571636
190	0x3e4bdd7b	0.19908707
191	0x3cf8d8ed	0.030376876
192	0xbe24d2ca	-0.16096035
193	0x3e0e325e	0.13886401
194	0x3c079e12	0.008277433
195	0xbe5d90c1	-0.2163725
196	0xbdf4da0b	-0.11955651
197	0xbe83e13a	-0.25757772
198	0xbe704b7c	-0.23466295
199	0x3e232303	0.15931325
200	0xbdb6c774	-0.089247614
201	0xbe898089	-0.26855877
202	0x3c777172	0.015102731
203	0xbf0b7fd6	-0.5449194
204	0xbf2989d2	-0.6622592
205	0x3e8a3504	0.26993573
206	0x3e3b47de	0.18289134
207	0xbe6a14ea	-0.2285954
208	0x3db99671	0.090618975
209	0x3e717feb	0.23583953
210	0x3eb205d3	0.3477007
211	0x3e94984e	0.2902245
212	0x3eefc0e1	0.46826842
213	0x3e824afa	0.25447828
214	0x3dfe768b	0.12424954
215	0xbdb68a32	-0.089130774
216	0x3eb14426	0.34622306
217	0x3ea0c1ac	0.3139776
218	0x3eaad80b	0.33367953
219	0x3eee8f10	0.46593523
220	0x3e18736b	0.14887778
221	0xbd902efb	-0.07040211
222	0x3ec1506b	0.37756667
223	0x3dcae0bb	0.09906145
224	0xbe680026	-0.22656307

arr_11 f4 [15]
0	0xbba49216	-0.0050222976
1	0x3e91947e	0.28433603
2	0x3eb32518	0.34989238
3	0x3e8857e3	0.26629552
4	0x3e368979	0.17825879
5	0x3d903dec	0.07043061
6	0x3dc13f99	0.094359584
7	0x3e82e912	0.25568444
8	0x3dc97a46	0.09837775
9	0x3e8eeb84	0.2791406
10	0x3dd68ee8	0.10476476
11	0x3dda37df	0.10655188
12	0x3db9ba95	0.09068791
13	0x3b9af133	0.00472846
14	0x3d762ea8	0.06010309
