subcellular_localization/notebook tutorial/params/CNN_params.npz (npz, 206482 bytes, 10 tensors)

arr_0 f4 [10, 20, 3]
00000000: b267 fe3e 45bd ae3e 14e5 c63d 86b5 9ebe
00000010: 8d75 5abc 55ea 8ebe c542 bf3d 57f4 9ebe
00000020: 8cf3 9d3d ba8c 923e 5c3c 6b3e aa98 bc3e
00000030: 085c c63e 800e 34be 17d0 df3c 0362 9d3d
00000040: a984 8cbe 03f3 9b3e 46a5 84be 17f9 8bbe
00000050: fd03 433e 2931 783d c078 8f3e d662 eabd
00000060: e323 833e bfb8 61be cecd c23e a942 a1bd
00000070: 5d6c 093e 1a5d 333e 7c16 99be bee4 a03e
00000080: 781b 3d3d 74ba 583e c3c3 62be 5d4b 8a3c
00000090: 3f67 943b e818 9d3e 3bff 2d3e 0732 cbbc
000000a0: 31e3 1f3e 4b96 91bd e90f 98bd 15cc 963e
000000b0: c940 87be 12ff e5bd 105b cfbd 9f3a a83e
000000c0: fd5b 913d d4df 3d3e 80fb 9a3e 1f73 b6bd
000000d0: 6095 b33d 55ba 8e3c cfe9 54be 2ac9 35be
000000e0: be1f 1abd b2b6 0f3d dad5 b03e 2fbe 2a3e
000000f0: f77e 993e e406 d8bd d27a 603e a2aa e0be
00000100: 5534 9cbe 8432 c5be 51ec e2be 10f7 b7bd
00000110: f620 abbe 9c83 6b3e e290 89be e91e 1c3e
00000120: fb81 8e3e a424 51be 1ce1 c23c 202c 8d3d
00000130: 6801 303e b3f7 9bbd d88b 7c3e 654e 9a3c
00000140: 4822 e33d 0aa4 d5bd ad88 983d 7f8d e0ba
00000150: 70e9 94be 15a7 95be a840 8dbe ee60 8a3d
00000160: 1175 273e 7939 d1bc b7d9 d13d 921a f43e
00000170: adf4 b93e f1d7 d6bd 060e 7abc d330 103e
00000180: 4593 b1bd f580 073f bc5b 6ebd 3b83 043e
00000190: e978 833c 9ca4 be3e 5106 71be 833a b7bd
000001a0: 5be1 93be 77c3 81bc 893f 083e 4529 90be
000001b0: 6791 04bc 6fea 883e 7fb1 a1bd d983 363e
000001c0: c24c 423e aed2 28be 070c 09be 2720 95bc
000001d0: b132 3abd 33f5 cd3e dc63 f33d 2ef2 953e
000001e0: ab74 3cbd 6a84 863e 9f3b 8e3e c006 583e
000001f0: be2b 773e bfbe 233e a03f b53d 1775 2dbe
00000200: 3307 353e 7a36 143e 336b adbe 628b 4abe
00000210: acaa 273d c08b fabd 3c05 8cbd 9c34 513e
00000220: d4eb c03d aaf4 3d3e 408c 1cbe cdd7 b2be
00000230: c6ea 8c3e a752 09be 96aa a4be d964 85be
00000240: 2e98 0b3e b248 d33e 04e1 433e 4b52 e63d
00000250: feef c43e a703 a5be 1bba a33d 6164 1fbe
00000260: c635 85bc 0562 b33e 3006 693e e4bf f33e
00000270: 8254 dc3e 916b 3f3d f47b d6bd af00 c1bd
00000280: 8181 a43e ea3a 2a3e 18de 59bd e8c8 653d
00000290: bf83 2cbe 0b20 433e 6fcb 55be 95ec ca3d
000002a0: 74a7 9f3e 7c5d 02be f55c 6e3e 987f fabe
000002b0: 8d05 95be dcbd afbe 53ee a2be ff20 4c3d
000002c0: 591d d3be 2898 4db9 f3ef c13e 8811 153e
000002d0: 8fe1 093e 888d 483e cd05 1f3e ac34 27be
000002e0: e9fa 0abe 961a 373d 3665 4abe b991 42be
000002f0: ce26 863d 2296 1f3e d4bd 36be e843 e43e
00000300: eff5 d63e 7d29 673d 3406 47be 8af2 de3d
00000310: c16a 293e 3c6b 583e 5daa e1bd e2ff 6a3e
00000320: 89f5 b23e 9e4b e0bd 28a5 5abd e2f7 a63e
00000330: dad6 a23d 685a a53d ba66 983d 3c7e ab3e
00000340: 729f b33e c542 97be 4898 8bbd e7cc ebbd
00000350: 56d6 afbe 87dd 8abe 2a67 373d ece7 563e
00000360: ff52 0e3e 917e 36bc 8a68 1b3d 9e24 943d
00000370: a441 283c 2838 cabe 67a6 16bd 02d5 1dbe
00000380: e0e9 423e b7a7 92be f913 b3be c028 96be
00000390: a38c 803d 2530 0bbe c2f9 003e 4193 a83e
000003a0: b9a1 493e ece3 e1bd c52b d63d 8070 483d
000003b0: b1fe 3cbe f9ea 383e 6d57 ce3d 0502 20be
000003c0: 2136 a6be 4602 30be 3e2c 9abe 1fa2 12be
000003d0: 2a2a 7ebe 1e46 2ebc 1f77 7bbc 9a53 823e
000003e0: 2123 283e 7e19 5e3e f621 32be 539a 253e
000003f0: d894 d23e 3281 713e b7bf d63e fe3f 973e
0.49688488 0.34128776 0.09711662 -0.30997866 -0.01333369 -0.27913156 0.09338907 -0.31045792
0.077124685 0.2862299 0.22972244 0.36835223 0.3874209 -0.17583656 0.027320905 0.0768471
-0.27444962 0.3045884 -0.25907344 -0.27338478 0.1904449 0.060593758 0.28021812 -0.11444633
0.25613317 -0.22043131 0.38047642 -0.078740425 0.13420244 0.17515984 -0.29899967 0.31424516
0.046168774 0.21164876 -0.2214499 0.01688164 0.0045289095 0.30683064 0.16991894 -0.024804128
0.1561401 -0.07108744 -0.074249096 0.29452577 -0.26416615 -0.112302914 -0.10124791 0.32857224
0.070976235 0.18542415 0.30270004 -0.08908676 0.087687254 0.017422834 -0.20792316 -0.17752519
-0.037627928 0.03508634 0.34538156 0.16674112 0.2997968 -0.10548189 0.21921852 -0.43880183
-0.30508676 -0.38515103 -0.4432092 -0.0898267 -0.33423585 0.22999424 -0.2686835 0.15246166
0.27833542 -0.20424134 0.023788981 0.06893182 0.17188036 -0.07615604 0.24662721 0.01883621
0.11090523 -0.104316786 0.07447944 -0.0017132013 -0.2908435 -0.29229036 -0.2758839 0.06756769
0.16353251 -0.0255401 0.10246604 0.47676522 0.36319485 -0.10490406 -0.0152621325 0.14081125
-0.086706676 0.5293115 -0.058192953 0.12940685 0.016048865 0.37234962 -0.23537566 -0.08946707
-0.2888287 -0.015840275 0.13305487 -0.28156486 -0.008091307 0.2674136 -0.07895183 0.17823733
0.18974593 -0.16486618 -0.13383494 -0.018203808 -0.0454585 0.40226135 0.11884281 0.2928633
-0.0460097 0.262729 0.27779862 0.21096325 0.2413778 0.15990733 0.08850026 -0.16939197
0.17678528 0.14473906 -0.3387085 -0.19779733 0.04093425 -0.122336864 -0.06836936 0.20430225
0.09419981 0.18550363 -0.15287876 -0.34930268 0.27522868 -0.13410436 -0.32161397 -0.26053503
0.1363227 0.412664 0.19128805 0.11246165 0.3846435 -0.3222935 0.07994481 -0.15565635
-0.016260993 0.3503572 0.22756267 0.47607338 0.43033224 0.046733443 -0.10472861 -0.094239585
0.32130054 0.16624036 -0.05319032 0.056099802 -0.16847132 0.19055192 -0.20878385 0.09908406
0.31182444 -0.12730974 0.23277648 -0.4892547 -0.29105797 -0.3432454 -0.31822452 0.049836155
-0.41233328 -0.00019607006 0.3787838 0.14557469 0.1346495 0.1958524 0.15529557 -0.16328686
-0.13572277 0.04470309 -0.19765171 -0.19000901 0.0655037 0.15584615 -0.17845851 0.44583058
0.41984507 0.05643605 -0.1943596 0.108861044 0.1654463 0.21134657 -0.11018822 0.22949174
0.34952953 -0.10951923 -0.05338016 0.32610995 0.07951136 0.08073884 0.074414685 0.33494747
0.35082585 -0.2954313 -0.06816155 -0.115136914 -0.34343213 -0.27122137 0.04477612 0.20986909
0.13898848 -0.011138574 0.037941493 0.07233547 0.010269556 -0.3949597 -0.036779787 -0.15413287
0.19034529 -0.2864358 -0.34976175 -0.29327965 0.06276824 -0.13592584 0.12595275 0.32924846
0.19690599 -0.11029801 0.10457567 0.048935413 -0.18456532 0.18058385 0.10075269 -0.1562577
-0.32463172 -0.17188367 -0.3011188 -0.14319657 -0.24820772 -0.010636834 -0.015348225 0.25454408
0.1641965 0.21689412 -0.17395768 0.16172151 0.41129184 0.2358444 0.41943142 0.2954101

arr_1 f4 [10]
00000000: 37cc 4e3d 8e79 a73a 8b6b 543c 3e1b 923c
00000010: 082e 603c 23ba b9bb 8d39 5c3c 6f49 14bb
00000020: 522c 86bc 40e4 543c
0.050487723 0.0012777315 0.012965093 0.017835256 0.01368285 -0.005667941 0.013441456 -0.0022626778
-0.016378555 0.012993872

arr_2 f4 [10, 20, 5]
00000000: 99f9 333e 302b 2db9 48a4 9c3e 858f febd
00000010: 336b f6bd f04d bc3d 51da a6be 66f1 aabd
00000020: 7b70 2bbe 2bd9 7dbd ef97 87bd ce53 8b3c
00000030: be13 7a3e 04c1 1bbe 5f66 e43d a49a 8dbe
00000040: de5d 543d 66f3 4a3e 601c 79bd b917 893e
00000050: a580 813e 688d 25be 9cd4 893e 50a7 7bbe
00000060: d091 4dbe 404c f53d 9df4 273d 086d 35bc
00000070: 482b 893e 6983 2e3e fef2 2a3c 8b2e 52be
00000080: b98c 7b3e 4119 b6be 98a9 97be 5769 573e
00000090: e7a4 5dbe d690 efbd dea8 26be 6fe1 4b3d
000000a0: 5cb9 75bc 65bc c3bb 17f9 923e dde5 1a3e
000000b0: c6e2 68be 223e b73d 0ed1 22be d859 96be
000000c0: 2eec dcbb 68d2 fdbd 0b9c 94bd 5a40 44be
000000d0: 176a 633d 74db 773e 1512 1b3e 2f95 fcbd
000000e0: 0917 e33d e25e 033d 5b82 253e 45d2 f5bd
000000f0: 2489 253e dbf6 853e 2d10 80be 9581 8c3e
00000100: 12dd 943e de4b 813e c48c c33b 7fb7 a33d
00000110: 3904 c13c 4b07 c73e 2214 aa3d 5e29 3cbe
00000120: ce1f 82be b7d4 d03e 54b4 83be 1993 f13d
00000130: 4572 823e c651 55ba 1e44 89bd 7e93 a9bd
00000140: 56a4 7dbe 841a b53d 17c2 c93d eb89 85bd
00000150: 21e1 0abe 7caa be3d 11cc 273e e63b 53be
00000160: 5667 59bd 7608 523d 1fa0 7fbd 38f5 29bd
00000170: 4c07 81be fce2 123e 7f78 243e c18f 87be
00000180: b51d bf3d 83c2 d5bd ba48 0ebd 03ca 5bbd
00000190: 3cee d8bc 82ad 55be 76d0 423e 27dc d4bd
000001a0: 8e75 30be 69df 95bd 2c03 06be 2a54 41be
000001b0: c22b 7abe 224b 0d3e 8343 9c3e bfcd c93d
000001c0: 9797 e63d a289 753e a874 15be 21bd 413e
000001d0: 927f ef3e 874b 9bbd 3a13 b93d 6db8 1bbd
000001e0: 3ad6 a4be 4e13 be3d 2dee 4abd 8382 45bd
000001f0: 74a2 3ebc 511f d83d 1714 6b3e 24e9 7e3e
00000200: d18c fe3d 3e12 d03c dca7 9b3e c094 a73e
00000210: 9f2c b03d 04f4 26bd d8c2 0ebe e749 7b3e
00000220: 2e0d 193e 036c 9d3d 1a34 dcbc ed7f aebd
00000230: 4a19 a43d ad27 913e c7f9 303e 9c7b 3c3e
00000240: c467 353e 51ef 4cbc b357 9abe 4577 4a3e
00000250: c55f ebbc 32b4 f83d 62a7 3cbd 29f2 32be
00000260: ce81 813e 9930 143c 05fe 0dbe 2e2b 3cbd
00000270: a3a3 06bd 2df7 213e 8de5 503e a2c0 913e
00000280: 7337 f83d 3402 33bd 3491 3abd d308 4c3d
00000290: 970a c6bc b256 803d 9872 fcbd a98a 653e
000002a0: f785 e4bd 6724 823e 923b c3bc 9658 733e
000002b0: 5282 883d 7f27 e43d 4db8 b03e 224f 44bd
000002c0: bdd7 87be f5dc 6b3c 657b 70be 03eb 663c
000002d0: 80aa a0bd 5814 ea3d 7e24 933d eeb3 b73d
000002e0: 761c c7bd 6a86 7e3e 435a d4bd 9423 aa3e
000002f0: 774e 113e 6ba6 693e 52b1 fa3d ef38 2fbe
00000300: ce83 5a3d 9836 913b 1f20 c7bd c48c ab3d
00000310: ea93 d4be 2b60 493e 88ae 5c3d 7c8f 163e
00000320: b114 c33d 7197 393e 6c0b 7cbc 142e 8a3e
00000330: 204c 043e 1a49 8bbe e123 c43d 9805 14bd
00000340: 321e 0fbe c037 5fbd 3a79 26be 1837 94be
00000350: 5057 02be b8d9 9ebe ff92 2a3c 6c97 ef3d
00000360: 6ada 413d 076d 59ba 0787 dc3c 54cf 05be
00000370: 0955 a63d bd1a 3abd da0d cd3c 6859 33bd
00000380: 0d3e 683e 152b c43c 2e5a 9fbd 6c6a 6f3d
00000390: 2fd5 c4be dd26 9bbe 7f27 dfbd 6ef0 7a3e
000003a0: 82f7 b3bd 3312 b4bd f88d ac3a 5bf4 283e
000003b0: b0bc cbbd ac63 013e aded 623e 0589 053e
000003c0: 93f5 873e 4caf 743e f728 74bd ddb1 7abe
000003d0: 4132 393d dac0 173e 7293 813d a868 0a3e
000003e0: b764 e53e a249 853e a2bb a03d 4b4d 133e
000003f0: 617a 8f3d 8468 2e3e 7526 6c3b d48d 2ebd
0.17575683 -0.00016514654 0.30594087 -0.12429718 -0.120321654 0.09194553 -0.32588437 -0.08346824
-0.16742127 -0.061974686 -0.06620776 0.017007735 0.24421594 -0.15210348 0.11152338 -0.27657044
0.05184733 0.19819412 -0.060818076 0.2677591 0.2529346 -0.16167223 0.2692002 -0.24575543
-0.20075154 0.11977434 0.041004766 -0.011073358 0.26790833 0.17042316 0.01043391 -0.20525567
0.245654 -0.35566142 -0.29621577 0.21036278 -0.21644937 -0.11697547 -0.16275355 0.049775537
-0.014997806 -0.005973386 0.28705665 0.15126748 -0.22742757 0.08947398 -0.1590006 -0.2936542
-0.006742022 -0.123936474 -0.07256325 -0.19165173 0.055521097 0.24204808 0.15143616 -0.12333142
0.11088378 0.03207291 0.16163008 -0.12002996 0.16165596 0.26164898 -0.2501234 0.27442613
0.29074913 0.25253195 0.0059677083 0.079939835 0.023561584 0.38872752 0.08304621 -0.18375155
-0.2541489 0.4078729 -0.25723517 0.11795635 0.25477806 -0.00081374904 -0.067024454 -0.08280085
-0.2476972 0.08842948 0.09851473 -0.065204464 -0.13562442 0.09309861 0.16386439 -0.20628318
-0.053077064 0.0512776 -0.062408563 -0.041493624 -0.2520088 0.143444 0.1606159 -0.26476863
0.09331838 -0.10437491 -0.034737326 -0.05365945 -0.026480787 -0.20866969 0.19024834 -0.10393553
-0.17232344 -0.07318003 -0.13087147 -0.18879762 -0.24430755 0.13798192 0.30520257 0.09853696
0.11259382 0.23978284 -0.14595282 0.18919803 0.46777016 -0.07582765 0.0903687 -0.03801768
-0.32194692 0.09281026 -0.04954355 -0.04822017 -0.0116354115 0.10552848 0.22956882 0.24893624
0.12429202 0.025399324 0.30401504 0.32730675 0.08602261 -0.040760055 -0.13941514 0.2453991
0.14946434 0.07686617 -0.026880313 -0.08520494 0.08012636 0.28350583 0.17282782 0.18406528
0.17715365 -0.012508229 -0.30145034 0.1977206 -0.02873219 0.121437445 -0.046058066 -0.1747519
0.25294346 0.00904479 -0.13866432 -0.045939617 -0.0328709 0.15816946 0.20400067 0.2846728
0.12119951 -0.043703273 -0.045548633 0.049813103 -0.024174972 0.06266536 -0.123265445 0.22416176
-0.11158364 0.25418398 -0.023832116 0.23764262 0.066654816 0.11140346 0.3451561 -0.04792703
-0.26531783 0.014395942 -0.23484571 0.014094117 -0.0784502 0.114296615 0.07184695 0.08969866
-0.09722225 0.24855962 -0.103687786 0.3323027 0.14190088 0.2281739 0.122408524 -0.17111562
0.053348355 0.004431557 -0.097229235 0.08376458 -0.415191 0.19665591 0.053877383 0.14703172
0.09525431 0.18124177 -0.015383583 0.2698828 0.12919664 -0.2720421 0.09577156 -0.036138147
-0.13976362 -0.054496527 -0.16257182 -0.28948283 -0.1272862 -0.3102548 0.010411023 0.11698803
0.047327437 -0.00082941394 0.026919855 -0.1306737 0.08121688 -0.045435656 0.025031019 -0.043786436
0.2267992 0.023946324 -0.07780872 0.0584511 -0.38443896 -0.30303088 -0.10896205 0.24505779
-0.08787443 -0.08792534 0.0013164869 0.16499464 -0.09948099 0.12635678 0.22160979 0.1304055
0.26554546 0.23894995 -0.05960938 -0.24481912 0.04521394 0.14819661 0.06326951 0.13516486
0.44803402 0.2603274 0.07848288 0.14384954 0.07005764 0.17032057 0.0036033664 -0.042615727

arr_3 f4 [10]
00000000: 063c 343c b86b 5e3c 519a 0a3d 0ff9 7ebb
00000010: 7112 ab3c 7e31 e4bb fd2f 39bc 11b0 093d
00000020: 7601 433c 594a 913c
0.011000639 0.013575487 0.033838574 -0.0038905775 0.020882817 -0.0069639077 -0.011302945 0.033615176
0.011902204 0.017735647

arr_4 f4 [20, 20, 3]
00000000: 9ed3 85be 544d f7bd 5bbb 80be 5e42 b6be
00000010: 24d0 a8be 3983 67be 03e1 523e 531b 363e
00000020: 280f 6e3e 7e77 aabe 379b f5bd 5d2e 68be
00000030: b91a 9bbe 00b1 56be dadf e23d 1951 b9bc
00000040: 3207 1d3e cb2c 37be 584c 4c3e f5fd 78be
00000050: e9b9 333e b714 d73d 0c28 3e3e 32ad 813d
00000060: 1b36 76be fd12 ddbd bc18 7dbe fbd8 d03d
00000070: e8a7 113e 32e6 123e 7bd9 85be e435 5abe
00000080: bbe0 943b 8529 4abe 9fd6 97be c4af 13be
00000090: f2a2 15be 370b 5ebe f852 85be 93ca 803e
000000a0: 3798 963e 5496 8a3e a599 853e 2b3b 903e
000000b0: 453f 223e b3f2 8f3e 8f9f 8d3e aae7 17bd
000000c0: cffc ebbd aafa 823e d056 a43e e051 22be
000000d0: ae4a 823e 38d6 9c3d 28f7 94bd b178 833e
000000e0: abca cd3d 05c9 e43d 8e94 093e 288e d63c
000000f0: 7e7a 8d3e 0479 9bbe aaea 79be a676 a6bd
00000100: a00b 5dbd 9234 90bd 618a c63d d165 a23d
00000110: 3436 4abd 6212 ae3e 6d7b c43e a4eb bcbc
00000120: 55df 633d 52e2 37be e00d 62bd 232d 6c3e
00000130: b9b0 a33e ea69 8abe 92a2 8b3e 69c9 81bd
00000140: 0035 fc3d 5403 34be 29a2 e4bc 76c1 943c
00000150: 1032 423e 4147 513c 5e5d 43bd 8393 873e
00000160: 1281 103e 2fb8 47bd 05a4 a23d 49c4 6f3e
00000170: 9015 453e 0d5e 123e c3bc 5dbe af3b 2e3d
00000180: 1390 d73d fbd5 6fbd 02ef 4e3d 5494 9ebe
00000190: e5bc abbd fc84 193e 3c1f b8be 04d6 f73c
000001a0: dfe2 aebe 96f3 863d 4671 87be dc14 99be
000001b0: 441d aabe a264 c73e 43c7 3c3d d721 8a3d
000001c0: 4555 61bd 6aec 85be a4d0 523d 7247 6d3e
000001d0: c223 3c3e 9d36 7bbe 90a9 743e df87 d2bd
000001e0: f521 a13e ac04 3d3e 0a08 703e bb3b 97be
000001f0: 0f25 5fbe c296 04be 1397 2dbe e7f9 f13d
00000200: 6066 e33c 3b2f 35ba 6508 8f3d 14b4 44be
00000210: b004 b8be d0e7 2c3d 7192 2bbe 37ad 063d
00000220: ec48 9ebe 18ef 6abe 9e83 c4be 99fe 8a3e
00000230: c1bf 553e 7c78 0abe a8b4 a73d 9a50 53be
00000240: df9f 9dbe 8fe2 103e 91d9 47be b926 df3e
00000250: a2f6 41bd 2b98 ba3d 39cf b3bd 6e5a 0e3d
00000260: 9328 7c3e ff80 54bd 6960 4e3d c67a 153c
00000270: 1a48 87be 83d0 c73c 3eac a1be 4fa3 52be
00000280: 00dd a23d 6f38 7ebd 155c 68be 8016 9ebe
00000290: 3b5d 0dbd d478 1ebc bac7 abbc e436 82bd
000002a0: c23c b7be d06a 47be aafe 80bd 89cf b73d
000002b0: 246b 65bc 23da 4ebe 7f5f 903e 8a62 923e
000002c0: c619 c6bd 7f21 03be 77b9 b83e f958 5e3e
000002d0: 4525 293d f4cd 8a3d 1c12 d03d 677b e93e
000002e0: 81bc 943e 5f01 ca3e b77d c8bd a571 5b3e
000002f0: a9e1 37be 4feb a2be 1aab 97be 88b6 95be
00000300: 1e4a d83d 778e 2d3e 1813 64be 87af cb3e
00000310: 0b5d b63e cc7f f43d ac6e df3e 3b0b 693e
00000320: 7b07 afbd fd8c 863e 3f4a ab3d 0840 23bd
00000330: fd84 98bd 6a2a 613e 337b 363e 69e0 cebe
00000340: ee9e d1be c388 cebe 9509 7ebe ebe1 3abe
00000350: 7a33 1bbe 804b 02be 163a df3c e551 21be
00000360: dde8 5d3e ed70 cf3d 3218 ea3d 5a7d 2bbc
00000370: 557c 0b3e ea4f cdbd 31e1 dbbe afa2 e9bd
00000380: 82fc 9bbe 9fb4 0f3d 49d9 bc3d ca0d d0bd
00000390: d81c e7be 5c9b 16be 5e49 b9bc a1e5 35bd
000003a0: f56b 113e 4d1b 8ebc 74eb 62be a6a8 fabe
000003b0: 8c0c 71be e1e4 d4bb fb6d 893c 57ff d23d
000003c0: f508 393e ead2 ca3d 0de2 7ebd d674 a73c
000003d0: 5fdd e53e ede4 1fbb 3728 113e 98cf 6bbe
000003e0: 3ad3 b6be e51f 8cbe ecc6 49be 16a1 90be
000003f0: 8f3d 99bc bace 65be 3be7 00be 0a07 d93e
-0.26138014 -0.12075296 -0.2514294 -0.3559751 -0.329713 -0.22608651 0.20593648 0.17783861
0.23247969 -0.3329429 -0.119924955 -0.22673936 -0.30293825 -0.20965958 0.110778525 -0.022621678
0.15334776 -0.17888181 0.19950998 -0.24315627 0.17551388 0.10501998 0.18569964 0.063318625
-0.24044077 -0.10794637 -0.24716467 0.10197636 0.14224207 0.14345625 -0.26142487 -0.2130962
0.0045433915 -0.19742401 -0.2965593 -0.14422518 -0.1461294 -0.21683966 -0.26039863 0.25154552
0.29413006 0.27067816 0.26093784 0.28170142 0.15844448 0.28114852 0.27660796 -0.037086166
-0.11522829 0.25581867 0.32097483 -0.15851545 0.254476 0.076580465 -0.07273704 0.25678018
0.100484215 0.11171154 0.13435575 0.026190832 0.27632517 -0.30365765 -0.24405923 -0.08128099
-0.053966165 -0.07041277 0.096943624 0.07929576 -0.0493681 0.339984 0.38375416 -0.023061581
0.055632908 -0.17957428 -0.055189013 0.23064093 0.31970766 -0.2703393 0.2727247 -0.06337244
0.123147964 -0.17579395 -0.027909355 0.018158656 0.1896441 0.012773336 -0.047696464 0.2647973
0.14111736 -0.048759636 0.079414405 0.2341472 0.19246507 0.1429369 -0.21654038 0.042537387
0.10525527 -0.058553677 0.050520904 -0.3097254 -0.08385638 0.14992136 -0.3596133 0.030253418
-0.34157464 0.06589429 -0.26453608 -0.29898727 -0.33225453 0.38943964 0.04608847 0.06744736
-0.05501296 -0.26156932 0.051468506 0.23171785 0.18373016 -0.24532552 0.23892808 -0.102798216
0.3147122 0.18458813 0.23440567 -0.29537758 -0.2179148 -0.12948135 -0.16952161 0.11815243
0.027758777 -0.000691164 0.06984023 -0.1920932 -0.35941076 0.04221326 -0.16755082 0.032880034
-0.3091501 -0.2294277 -0.38381666 0.27147368 0.2087393 -0.13522524 0.08188754 -0.20636216
-0.30786034 0.14148925 -0.19516589 0.4358423 -0.047354348 0.09111055 -0.08779759 0.03475421
0.24624853 -0.051880833 0.050384913 0.00912351 -0.26422197 0.024391418 -0.31576723 -0.2057011
0.07952309 -0.062065538 -0.22691377 -0.3087654 -0.03451274 -0.009672362 -0.02096926 -0.06358126
-0.35788542 -0.1947434 -0.06298573 0.08975131 -0.014002595 -0.202004 0.28197858 0.28590804
-0.09672885 -0.12805746 0.36078998 0.21713628 0.04129531 0.06777564 0.10159704 0.4560196
0.29050067 0.3945417 -0.09789603 0.2143007 -0.17957176 -0.3182015 -0.29622728 -0.29240823
0.10561012 0.16948877 -0.22272909 0.39782354 0.3561786 0.11938438 0.43639123 0.2275819
-0.08546349 0.2627944 0.08363771 -0.039855987 -0.074472405 0.21988836 0.17820434 -0.40405586
-0.40941566 -0.40338716 -0.24808343 -0.18250243 -0.15156356 -0.12724113 0.027249377 -0.15753897
0.21670862 0.10128961 0.11430396 -0.010466898 0.13621648 -0.10025008 -0.42945245 -0.114079826
-0.30466086 0.035084363 0.09221131 -0.1015888 -0.45139194 -0.14707702 -0.022617992 -0.044408444
0.14201339 -0.017347002 -0.2216013 -0.48956794 -0.23539943 -0.006497011 0.016776076 0.103026085
0.18069823 0.0990351 -0.062227298 0.020441454 0.44895455 -0.0024397925 0.14175497 -0.2302841
-0.35708028 -0.27368084 -0.19704789 -0.282479 -0.018706111 -0.22442141 -0.12588207 0.42388183

arr_5 f4 [20]
00000000: 6692 e73c 0b1f 26bd feca ce3b 8f95 a3bb
00000010: 2599 8c3d 9d01 1f3d 357f 033d 2ece 00bd
00000020: 4218 bdbc dc34 f33c e81e 39bd 174d 59bd
00000030: 4632 25bd f917 983c 12f6 793d ff90 a93b
00000040: b3ff db3c 7aa4 2c3d c365 483c bbdd 93bc
0.02826805 -0.04055695 0.0063108196 -0.004992194 0.068651475 0.038819898 0.032103736 -0.03144663
-0.023082856 0.029688291 -0.04519549 -0.053052034 -0.040331148 0.018566119 0.061025687 0.0051747556
0.026855325 0.042149045 0.012231293 -0.018050065

arr_6 f4 [1600, 30]
00000000: 3634 a23c 32cc d0be 9feb b33e 44f6 c53c
00000010: a829 a9be f08d 3ebe 47fb 233e 1219 3abe
00000020: 91b3 893d f2e4 76bb 8ab1 f4bc 3bbd c53e
00000030: 32eb 24be ee1e 8f3c 45b5 3cbe 22dc aabc
00000040: a888 1c3d 8590 0bbd fb56 afbc 1ca0 053e
00000050: 4fb1 0d3d ff91 573c 7b83 65bd e9fa 003d
00000060: eb1b 42bc 955d 3c3c 8406 a83c 0e63 013d
00000070: b03e 6dbd c9b7 df3c 234c e23c b95b f1be
00000080: d2b4 b03e b0f2 67be e8e6 d4bc 3c61 f6bd
00000090: 966f 4abd 0a97 7cbe 817e 273d 09a2 4abd
000000a0: dc5d 193d 2ee7 993e b2dd 04be 4971 0e3e
000000b0: 6129 bebe aa07 b03c 844b 96bc 4910 0a3c
000000c0: c3ef c5bb 59ce 31be 2937 953c 20eb 583e
000000d0: 2a47 2fbd 8d67 8dbc 7ece a2bd b523 46bc
000000e0: 2bfb 5dbd 11c1 37bd 411a 31bc 79af 003d
000000f0: 4608 4f3d 9058 95be 45b6 7d3e 4d55 18be
00000100: 1227 2f3e 7219 513b f912 933d 293b 7ebd
00000110: f4dc f83d 1154 49bd d240 debc 1c88 1c3e
00000120: 3a1c 9bbd 7db0 d43d 8237 ffbd fe70 183c
00000130: 6203 683c 0824 b2bb c093 243b 0fd8 62be
00000140: 8934 7a3c 8395 893e 6728 91bd 1518 293d
00000150: 4d64 48bd f967 b2ba 5680 06bc abad b53c
00000160: dfb9 1b3d a2da 213d 40f7 703b ed64 65bd
00000170: eb22 283e 4af6 2cbe 1211 793e 09bf 563d
00000180: a3c0 1ebe 18a5 93bb 40c3 2f3b 2a84 ba3b
00000190: a090 4fbd f2ab e13d 8d45 333d 233a 023e
000001a0: 9c22 93bd 0322 71bd 8e5e 5cbc d197 9339
000001b0: c998 ecbc de94 7abe e274 873d 68ed 983e
000001c0: 4cef 7e3c 8a8c 12bd 31a6 9bbd 9ba8 8fbd
000001d0: 4946 11bd 45a4 3dbd 0f43 92bc ea16 66bd
000001e0: daf3 5dbc 6b9d f63c a715 99bb 6d7a 293d
000001f0: 6771 2a3e 7749 433d 3ac0 e33d 8357 4d3d
00000200: c8f5 a3bd 242d 893c 29fd 373c 50cd e43d
00000210: 8531 e8bd 1708 623e d324 55be b8dc b03c
00000220: e282 9bbd a295 f23c de2a 0b3d 6712 60be
00000230: c549 34be c565 8d3e 832b 97bd 372f 4bbd
00000240: d897 a8bb a597 893c c868 d43b 4806 cdbc
00000250: bb2d e23c 7eee 89bd 3fe2 85bd 9b4d 19bd
00000260: 955e 03bb 39fc 86bd af62 af3d 66ce 283d
00000270: 1f24 933d 0625 f23d 43d9 a53d 73e0 173d
00000280: 0ffb 45bd 631f 3c3c 2c1a 21be 9924 623d
00000290: 7e65 30be a026 e0bb d247 95bd 80a5 7b3b
000002a0: 4724 123d 8ede 8cbe c0fb 5abe 7bcb 2c3e
000002b0: c4c1 babc 7174 8bbd f58a 6abc 9579 32bd
000002c0: 5c31 953c 956b 9cbd 17de 54bd 9d45 5d3c
000002d0: 6377 b23c 713b 113e bf30 593d 026c c93d
000002e0: 5fd4 173e 4a3f e7bd 5f05 c13d 56ce 6d3c
000002f0: 891a 3ebd 4faa 10bc 735b 0cbd 813f 913d
00000300: 3b30 ff3c f27b d53b 080b 81bd cf46 373c
00000310: 8970 75bc e0d0 5ebd 851e 65ba b755 e2bd
00000320: 4e94 5ebe fcc5 ab3d 3576 40bc 4bfa 3bbd
00000330: 5527 0c3d cf54 47bd a4b2 1dbd d045 85bd
00000340: 1582 cd3b 0cf2 de3b 0665 84bd 63ad 863d
00000350: 18b8 233e a22b 393d 649a 343e b992 babc
00000360: 7186 4d3d 2e1c 523e 9498 333d dc4c 6abd
00000370: 74bd 7d3c 3a3b e23d ce7c 40bd 7bdd 663d
00000380: 5ca3 b5bd 362d b0bc b17a 983c 3725 2d3a
00000390: 3d9b 65bd 49a2 23be a4e8 29be 3abc d13d
000003a0: 5cd1 2a3c c4e5 133d 3693 f2bc 6050 71bc
000003b0: e7e4 75bd 6c64 463b b7be 2dbd 1811 0f3d
000003c0: 337c 49bd 91af b73b 95ae 0f3e cd9d f03c
000003d0: 8b87 113e 3b03 60bc 14dc 3c3e 75a7 613e
000003e0: be5d ad3d 5e0b 82bd 2604 8ebc cc83 c2bc
000003f0: 05d6 33be 7334 153e b778 bcbc a844 67bd
0.019800287 -0.4078079 0.35140702 0.02416528 -0.33039594 -0.18608832 0.16013823 -0.18173626
0.06723703 -0.0037673083 -0.029869813 0.38620934 -0.16105345 0.017470803 -0.18428524 -0.02085692
0.038216263 -0.03407337 -0.02140378 0.13049358 0.034592923 0.013157367 -0.056033593 0.031489287
-0.0118474765 0.011496921 0.02051092 0.031588607 -0.05792111 0.027309315 0.027624195 -0.4714029
0.34512955 -0.22651172 -0.02598901 -0.12030265 -0.049422823 -0.24666992 0.040892128 -0.049470935
0.037443027 0.3005919 -0.12975195 0.13910402 -0.37140945 0.02148803 -0.018346556 0.008426734
-0.0060405447 -0.17363872 0.018214779 0.21183443 -0.042792477 -0.01726129 -0.079495415 -0.012093474
-0.05419461 -0.044861857 -0.010809482 0.031417344 0.050545 -0.2916913 0.24776562 -0.1487629
0.17104748 0.0031906036 0.07181353 -0.06206814 0.121515185 -0.049152438 -0.027130518 0.15286297
-0.07573743 0.10385225 -0.12461759 0.009304283 0.014160963 -0.005436424 0.002511248 -0.22152732
0.015271314 0.2687188 -0.07087784 0.041282732 -0.04892378 -0.0013611309 -0.008209309 0.022177538
0.038019057 0.039515145 0.0036768466 -0.056004453 0.1641957 -0.16890827 0.24322918 0.05242828
-0.15503173 -0.0045057647 0.002681926 0.0056920247 -0.050675035 0.11019124 0.0437675 0.1271749
-0.071843356 -0.058870327 -0.013450278 0.00028151137 -0.028881447 -0.24470851 0.066140905 0.29868627
0.0155599825 -0.03577856 -0.07600058 -0.07014581 -0.03546742 -0.046299238 -0.017854242 -0.056174196
-0.013546908 0.03010436 -0.0046717706 0.04137652 0.16644822 0.047677483 0.11120649 0.050132286
-0.080058634 0.016745158 0.011229792 0.11171973 -0.1133757 0.22073399 -0.20814829 0.021589622
-0.07593323 0.029612366 0.03397643 -0.2188202 -0.17606266 0.27616706 -0.07381346 -0.049605574
-0.0051450543 0.016795943 0.0064822175 -0.02502741 0.027609697 -0.06734942 -0.06537294 -0.037427526
-0.002004539 -0.065910764 0.08563744 0.041212462 0.07184624 0.11823468 0.0809808 0.037079286
-0.04833513 0.011482093 -0.1573264 0.055210683 -0.17226216 -0.006840542 -0.07289089 0.0038398206
0.035679128 -0.27513546 -0.21385098 0.16874497 -0.022797473 -0.06809319 -0.0143153565 -0.04357298
0.018212013 -0.07637707 -0.051969614 0.013505367 0.021785444 0.14182831 0.053025004 0.09835054
0.14827107 -0.11291368 0.094248526 0.014514526 -0.046412025 -0.008829667 -0.0342669 0.070921905
0.031150928 0.0065150196 -0.06300932 0.011186316 -0.014980444 -0.054398417 -0.00087402045 -0.11051505
-0.21736261 0.08387372 -0.011746933 -0.045892995 0.034217197 -0.048664864 -0.038500443 -0.06507456
0.0062716105 0.0068037566 -0.06464581 0.0657604 0.15988195 0.045207627 0.1763702 -0.022775041
0.05017704 0.20518562 0.04384668 -0.057202205 0.015487064 0.11046453 -0.046994023 0.056363564
-0.08869049 -0.021505933 0.018613191 0.0006604972 -0.05605625 -0.15979876 -0.16592652 0.102409795
0.010425892 0.036107793 -0.029611211 -0.014728636 -0.06003275 0.0030272258 -0.042418208 0.03492841
-0.04919071 0.005605646 0.14031442 0.02937212 0.14211862 -0.013672645 0.18443328 0.22036536
0.084651455 -0.06349824 -0.017335963 -0.023744486 -0.1756211 0.14570789 -0.02300678 -0.05646196

arr_7 f4 [30]
00000000: a014 72bc a6ca 40bc a1f6 503d 02a4 96bc
00000010: 9509 573d fc16 613d 74d7 5f3c c861 5a3d
00000020: 7448 1b3d 3d57 66bc 93e1 3fbc df1f 193b
00000030: 1f1f 99bc 7acc b93b c99a 45bc 22f9 75bc
00000040: d5a7 86bc 8b85 53bc 79b6 1fbc bb3a 68bd
00000050: c64a 1abb cc06 203d e2f4 75bc 6aef 6dbc
00000060: a8ca debc eddc 6fbc 4cca 21bc 742f 66bc
00000070: aff7 75bc 161a 9bbc
-0.014775425 -0.011767065 0.051016454 -0.018388752 0.052499373 0.05495356 0.013662208 0.053315908
0.037910894 -0.014058885 -0.011711496 0.0023364944 -0.018691598 0.0056701275 -0.012060829 -0.015013011
-0.01643745 -0.012910257 -0.009748095 -0.056696635 -0.0023543104 0.039068982 -0.015011998 -0.014522413
-0.027196243 -0.014640075 -0.0098748915 -0.0140494 -0.015012666 -0.018933337

arr_8 f4 [30, 10]
00000000: 747d 8c3d 61f6 d3bd 5ed6 36be efcf b83e
00000010: 71cf 933e 5859 26be b72e d83d e233 5dbd
00000020: 7383 213e e51c f83d 5bff 30bf 08be 743e
00000030: bfe0 903e 90e2 b8be fab2 13bf ea18 a13d
00000040: bfc1 f03e 7a0c 26bf a32c b73e 8b0d 9e3c
00000050: ce95 bd3e 0780 c53e 5453 4dbe 126b b23e
00000060: b90d 66be 1b2f 2bbf 0c67 d5be 4676 973e
00000070: 333e 20bf 85b6 41bd bdaf debe 7c4e c9be
00000080: 5fd1 d23e 631a dbbe 0f35 4b3e d396 04bd
00000090: 39ce b7be 028d 6fbe 97bb 843e cc95 32bf
000000a0: 0d55 933d d40a 223e 3e3d 32bf e1ac 273e
000000b0: d292 3dbf 82a4 a1be 30f3 473e 96f6 14bf
000000c0: 5ad8 1fbf 9208 213e eed7 ac3e 3314 8d3e
000000d0: d68c d9be e020 b7be 8219 37be edfe e6be
000000e0: ae4f 2bbf 54b5 0ebf 3a77 ddbe a5a7 2cbd
000000f0: 502a a63e 69ce cfbe eda6 193f 0d6b c53d
00000100: 036a 08be bf8e 99be c3d5 0dbf a240 f0be
00000110: 8450 37bd 6c6d 94be 8762 b73e ca69 083e
00000120: 74b2 783e 6b29 b2be fcc1 a4bd f83e bcbe
00000130: cdd0 a6bc 2548 03bf 20d9 acbe 6b2d 86be
00000140: 8917 f03e d3c0 40be feb9 86be df17 1fbe
00000150: ef0e 0f3f b2f2 b8bd 99e5 bbbe c3da b23d
00000160: 2302 b2be a1a0 a2be e629 b23e ee8a 8cbd
00000170: 1044 fbbd 532c 4bbe ec53 94bd ea9d 913e
00000180: f4bd bcbe 13bb 8f3e 9e07 23be a191 013c
00000190: 39d5 9ebe 601e 2fbe 658d 87bd b56c aa3d
000001a0: 7948 00be 51af 9bbe 1922 b43d f572 8ebd
000001b0: 44c1 c4bd 82a0 2cbe 6e90 e7be f583 80be
000001c0: 3271 1a3f 7955 073f d3b9 d8bd a100 693e
000001d0: 9ffe bdbe 56dc 7cbd b8c7 b2be 689a 2cbf
000001e0: 8cd0 a8be 06e0 313f 163b 8ebe 6384 d6bd
000001f0: df81 f9be 8512 8abe ad99 ce3c 8625 07bf
00000200: 1827 3cbe 5107 f53e 09ee d6be 80b6 92be
00000210: de63 a4be 228b 103f cd30 a0be f744 6b3e
00000220: 1d99 0c3f 62ef 18bf c7d1 a53d dcd6 c8be
00000230: 11b0 7e3e 8fd7 d73e 39c7 ad3e 77cf debe
00000240: 8d74 f13c d635 b53e 2cd1 a6be 2a7e 02bf
00000250: 6a49 eabe e524 e73c 803e 7abd d2d4 a23e
00000260: 07e2 ea3d 14bd 543e 6c77 22be 8432 503d
00000270: 4b19 d8bd 76a1 343e e467 863e 3caf 6fbd
00000280: 5628 203c a516 b9be e6b0 9abe 24d1 b8bc
00000290: 1c6c a8be ae2f cebe c76a b5be d2db 793e
000002a0: acf1 0b3d f0fb 943e 355c 593e eb58 b4be
000002b0: 26e7 a93e b415 b9be 60f3 ac3e 8e06 a53d
000002c0: 807b c13e f34f e43d 50b9 7dbd 212e c2bc
000002d0: d617 5a3e cdf1 3abe 342b 493e 7f02 45be
000002e0: 87ec 323d 5afc 3ebe 53d0 b33e cf14 a43e
000002f0: 417d 57be 8594 26bd ec29 02bf 419f 9dbe
00000300: 7b47 2b3e eb0f e7be 0258 513e e966 143e
00000310: 79ae 00bf af23 343e ca9b 2f3e d0d6 e7be
00000320: 9c97 cbbe c627 d93e 2921 23bf 3b60 77be
00000330: 79f5 103f a76b c2bd d30d 63be 1bf1 71be
00000340: 9d3d 75bc 629e c0bd 01be 01be 0944 e3be
00000350: 7f84 a9be d00e b13e 93db a53e 3e11 56be
00000360: bb2d c83e 1301 f3be 99d1 7dbe 90a7 0cbe
00000370: 7530 3fbe a2b0 6e3e 6aea b6bc f97c 3dbe
00000380: 82db 62bd cfbc ae3e 6d53 c5be b71e 3f3e
00000390: dc46 9d3e e72e 913e e561 22bd 0c26 83be
000003a0: 2a45 7d3b c2b0 03bd 9990 86bc 7aa8 903e
000003b0: 805b dc3c d5cd 8abe 8142 a6be 676f 58be
000003c0: e562 1f3e 3b4f 36be a512 f93d 6f33 b23d
000003d0: 59a1 943e b7d4 63bc 6b28 23be f7a9 26bd
000003e0: 7d77 c8be f5ea 3f3e 488e a7be 2267 51be
000003f0: 7753 f73d 8bf0 1abe e163 623b 2516 523e
0.06859866 -0.103497274 -0.17855212 0.3609614 0.28869203 -0.1624502 0.10555785 -0.054004557
0.157728 0.12114886 -0.6913964 0.23900616 0.28296468 -0.36110353 -0.5769497 0.0786608
0.47022817 -0.6486279 0.35776243 0.019293567 0.37028354 0.3857424 -0.20051318 0.34847313
-0.22466172 -0.6686875 -0.4168018 0.29582423 -0.6259491 -0.047293205 -0.43493453 -0.3931769
0.41175362 -0.4279357 0.19844459 -0.0323704 -0.35899523 -0.23393634 0.2592437 -0.6975982
0.071939565 0.15824443 -0.696247 0.16374542 -0.74052155 -0.31570822 0.19526362 -0.5818876
-0.624395 0.15725926 0.3375849 0.27554473 -0.42490262 -0.3576727 -0.17880824 -0.45116368
-0.66918457 -0.55745435 -0.43255025 -0.042152066 0.32454157 -0.40587166 0.60020334 0.09639559
-0.1332169 -0.2999172 -0.554043 -0.4692431 -0.04475452 -0.28989732 0.35817358 0.13321605
0.24286824 -0.34797224 -0.08044812 -0.3676679 -0.020363236 -0.5128196 -0.33759403 -0.26206526
0.46892956 -0.18823557 -0.26313776 -0.1553645 0.5588216 -0.090306655 -0.36698607 0.08733132
-0.34767255 -0.31763175 0.3479759 -0.06862436 -0.12268841 -0.19841127 -0.07242569 0.2844079
-0.36863673 0.28072414 -0.15920874 0.007908256 -0.3102205 -0.17101431 -0.06618766 0.083215155
-0.12527646 -0.30407193 0.08795566 -0.0695552 -0.09607175 -0.16858104 -0.4522738 -0.25100675
0.6032897 0.52864796 -0.10582318 0.22754146 -0.37108323 -0.061733566 -0.34917998 -0.67423105
-0.3297161 0.6948246 -0.27779454 -0.104744695 -0.48731896 -0.26967254 0.025219763 -0.5279163
-0.18374288 0.47857144 -0.4197848 -0.2865486 -0.32107443 0.564623 -0.31287232 0.22975527
0.5492113 -0.5974027 0.080966525 -0.39226425 0.24871852 0.42156646 0.33941057 -0.43517658
0.029474521 0.35392636 -0.3258146 -0.5097376 -0.45759135 0.028215835 -0.06109476 0.31802994
0.114688925 0.20775253 -0.15865868 0.050829425 -0.10551699 0.17639717 0.26251137 -0.058516726
0.009775242 -0.3615009 -0.30213088 -0.022560664 -0.3289498 -0.40270752 -0.35433027 0.24400261
0.034166023 0.29098463 0.2122658 -0.3522409 0.33184165 -0.3614937 0.3377943 0.08057891
0.37789536 0.111480616 -0.061944306 -0.023703637 0.21298155 -0.18256302 0.19645387 -0.19239233
0.0436826 -0.18650952 0.35119876 0.32047126 -0.21043874 -0.040668983 -0.5084522 -0.30785564
0.16726486 -0.45129332 0.20443729 0.14492382 -0.50266224 0.17591737 0.17149273 -0.45281076
-0.39764106 0.42413157 -0.63722473 -0.24157803 0.5662456 -0.09493189 -0.22173242 -0.2362713
-0.014968303 -0.09405209 -0.12670137 -0.44387844 -0.331089 0.34581614 0.32394084 -0.20905015
0.3909739 -0.47461757 -0.24786986 -0.13735795 -0.18670829 0.23309568 -0.022328574 -0.18504705
-0.05538512 0.34128425 -0.3854021 0.1866406 0.30718124 0.28356096 -0.03964414 -0.25614965
0.0038645961 -0.03215099 -0.016426371 0.28253537 0.0268991 -0.27110162 -0.32472613 -0.21136247
0.15565069 -0.17803662 0.12161759 0.087012164 0.29029348 -0.013905696 -0.15933387 -0.040689435
-0.39153662 0.18741973 -0.3272574 -0.20449498 0.120764665 -0.15130822 0.0034544396 0.2051626

arr_9 f4 [10]
00000000: 1b0a 973b cda8 7ebc 3a02 83bc 0e35 7e3d
00000010: 4ee8 2d3e 38dc 0fbe aaf3 75bd 4e86 cf3d
00000020: 1e27 dbbd 28f8 85bd
0.004609359 -0.015543175 -0.015992273 0.062062316 0.16983148 -0.1404885 -0.06004683 0.101330385
-0.107008204 -0.06541473
