subcellular_localization/notebook tutorial/params/FFN_params.npz (npz, 962078 bytes, 4 tensors)

arr_0 f4 [8000, 30]
00000000: 5cb6 88bc 0d78 2cbd 1510 c1bc 9e87 e93d
00000010: 0d75 42b8 b615 46be be01 f13d 86d5 dc3d
00000020: 7210 323e 0fbb 20be 4e17 3b3c c6ab a23b
00000030: e48d 7abc 0a62 17bd 2276 ac3d f70e 283d
00000040: 97e4 423e 32a6 6bbe 0ccf 893d 0409 683e
00000050: 3853 dbbc 493d 50be fd2a bebc 962f c5bc
00000060: 3191 633e 1ba8 65bd c49c 3b3c d31f 653d
00000070: 7883 153e d084 69be 5528 983c b1bb 9fbc
00000080: 6257 903b 251b 573c 9c28 8cbc a87b 573d
00000090: b509 ce3d 7e0d e33d 8434 f93d 6b86 c2bd
000000a0: 4488 b13b 4531 c13c 7c70 673c 8c40 57bd
000000b0: b674 b23d 62d9 4a3b 87a2 c23d 31b2 9cbd
000000c0: ac89 323d e9e4 103e 0fa3 b6bd 3bb8 eebd
000000d0: cbc9 e8bb 340c 4dbc f22f b53d 5880 af3c
000000e0: b1f2 acbc 0b00 423b 2313 df3d 2883 debd
000000f0: 023b 08bd 8c48 d23c 3d80 8ebc 4d33 783c
00000100: d75b a03c ee2c e83a d3fd 103e db37 f93d
00000110: 2881 0bbd a6de c6b9 3dac 883c a06f 6fbc
00000120: 7ca9 52bb e18a 16be cdd3 223e c840 d13c
00000130: 6c3c 2b3e c6e9 f1bd 9d54 333e 7561 393e
00000140: d80e 0abe 0a23 2fbe 4383 fc3b 4db9 24bc
00000150: 11a2 d43d 9f45 53bd 573d adbc c4d3 ab3d
00000160: aafc 4abd ef4e f9bd 974c 1fbd e9dd 43bc
00000170: 8e87 9b3c 7a47 853d 0c29 7cbc 24b7 25bd
00000180: bf32 273e 085d 093e bd0f 0d3e 90ef 27be
00000190: ccab bc3c 8401 1cbc 9817 ae3b cba8 d8bd
000001a0: 7875 0a3e c9f0 a7bc 1d08 4e3e 3224 c2bd
000001b0: 0916 2a3e 2fda 0c3e a6bc 71bd 00eb 4bbe
000001c0: 5ff5 1a3c 0c40 5d3c a5ab 1a3e b944 3ebc
000001d0: f0cc 4fbc 9817 b5bb c9ce 013e db77 27be
000001e0: 89dd ab3c 211e d9ba e2fa 3dbc d430 623c
000001f0: 1024 063b 2144 b63c c67f cd3d 0016 a83d
00000200: 1777 973c 06db edbd 4849 c33c 89c2 b7bc
00000210: a26b c7bc 66e1 19be 66c2 a13d d9b6 873c
00000220: 1bdc a53d 58b1 f9bd 979f 343d c538 213e
00000230: 440f 20be ed1c 12be 58a7 c43c acba d1bc
00000240: 57e9 8e3d 9fd9 adbc 92c5 cabc 9043 833d
00000250: 54de 653d e2d0 12be e8f0 04bd 7725 293c
00000260: 19c9 d0bc f97a fc3c 0413 c1bc f921 e03d
00000270: 775c 0ebd a239 03be 6f3c d1bd b119 be3d
00000280: f403 ba3c c26c 8b3a 163c 04bd a4f9 c83d
00000290: 22c9 35bd b32c 013b 67eb cc3c b9d5 56ba
000002a0: 9f1a 56bd cfe2 023e 0cc0 dfbc 2aff 8abd
000002b0: 3b55 28bd 0593 14bd 4fe3 8ebd 2187 9cbc
000002c0: 7632 023c 63a3 bcbc c4a0 f3bd 482a 09bd
000002d0: 10a1 973b 38f8 5f3c 7176 4ebc 241f 8a3c
000002e0: 898f debb 4265 043e c3af dc3d 6512 a9bd
000002f0: 3743 23be 5fce cd3d 8543 3f3b 7c12 a5ba
00000300: a624 8e3b 6e25 41bd 09ce e43d 9cdd 34bb
00000310: 4cef 3f3d 1160 08bd a226 db3d 9ec5 dd3d
00000320: 1e6e b0bd 6a9f 18be 4a10 7abc 0573 1fbd
00000330: cad2 99bd de51 193c 6639 87bc 1865 c3bc
00000340: fed0 58bd 9818 943d 2858 27bd 5c81 55bd
00000350: 0ce4 d53c f376 a73d 5c99 53bb 7267 8ebe
00000360: 0a7b 213e 1a5d 803e 7e6f 603e 5421 3abe
00000370: 4623 383c a9ca b5bc 7819 fb3b d39e 22be
00000380: fc13 df3d 6984 a03b 1089 3a3e da80 3ebe
00000390: 61b5 203d 68a8 443e 49a4 d5bd c941 24be
000003a0: 380c bb3c 7adb a2bc 2483 993e 14f4 d4bc
000003b0: b8f3 f33a a0c1 b73c 7ffc 663e e3aa 3cbe
000003c0: 725d 5a3c bfe6 a9bc cd1a d3bc b560 3cbc
000003d0: 8730 b7bc f098 68be 5967 d03d f130 d73d
000003e0: 06ec c73d b370 06be cbf6 77ba c530 813c
000003f0: 385f f33a 75fa 82bd 4c71 863d a445 9bbc
-0.016688518 -0.042106677 -0.023567239 0.1140282 -4.6362216e-05 -0.1934422 0.117679104 0.10782914
0.17389086 -0.15696357 0.0114191305 0.0049643246 -0.015292618 -0.03695873 0.084209695 0.041029897
0.19032513 -0.23012617 0.06728944 0.22659689 -0.02677308 -0.20335878 -0.023213858 -0.024070542
0.22223355 -0.05606852 0.01145095 0.055938553 0.14600933 -0.2280457 0.01857392 -0.019498678
0.004404948 0.01312903 -0.017109208 0.052608162 0.10060445 0.11086558 0.1216822 -0.094982944
0.0054178555 0.023583064 0.014125939 -0.05255179 0.08713667 0.0030952324 0.09503656 -0.07651175
0.043588325 0.14149822 -0.0891782 -0.11656233 -0.0071041337 -0.0125151165 0.088470355 0.021423504
-0.021111818 0.0029602076 0.10892322 -0.1086486 -0.0332594 0.025669359 -0.017395133 0.01514895
0.019575043 0.0017713585 0.14159326 0.12168857 -0.03405872 -0.0003793139 0.016683692 -0.014614016
-0.0032144478 -0.14701416 0.15901108 0.025543585 0.16722268 -0.11812167 0.17512746 0.18103583
-0.13482225 -0.1710321 0.0077060773 -0.010053945 0.10382474 -0.051580068 -0.021147413 0.083900005
-0.049557365 -0.121732585 -0.0388914 -0.011954763 0.018985536 0.06507774 -0.015390646 -0.04045786
0.16327952 0.13414395 0.13775535 -0.1639998 0.023031138 -0.009521846 0.005312871 -0.1057907
0.13521373 -0.020500557 0.20120282 -0.0947956 0.16609968 0.13755105 -0.0590178 -0.19913864
0.009457915 0.0135040395 0.1510454 -0.011613064 -0.012683138 -0.0055264942 0.12676539 -0.16354315
0.02097966 -0.0016564765 -0.01159546 0.013805587 0.0020468272 0.022249283 0.100341365 0.08207321
0.018489404 -0.11614041 0.023838654 -0.022431629 -0.024343316 -0.15027389 0.07898407 0.01656668
0.080986224 -0.12192029 0.04409751 0.15744312 -0.15630823 -0.14268847 0.024005577 -0.025601707
0.069781 -0.021221934 -0.024752412 0.06409371 0.05612023 -0.14337495 -0.03245631 0.010323874
-0.025486516 0.030820357 -0.023568638 0.1094398 -0.03475615 -0.12814954 -0.10216605 0.09282244
0.022706963 0.0010637271 -0.032283865 0.0981324 -0.04438127 0.001971048 0.025014592 -0.00081952993
-0.05227148 0.12781833 -0.027313255 -0.0678695 -0.041096907 -0.03627302 -0.069769494 -0.019107403
0.007946601 -0.023027128 -0.11895898 -0.03348759 0.0046273544 0.01367002 -0.012601481 0.016860552
-0.006792013 0.12929252 0.107757114 -0.082554616 -0.15943609 0.10049128 0.0029184532 -0.001259401
0.004337865 -0.047154836 0.111721106 -0.002759791 0.04685907 -0.03329474 0.10700728 0.10828708
-0.08614753 -0.14904562 -0.015262673 -0.03892805 -0.07510908 0.009357898 -0.016506862 -0.023851916
-0.052933685 0.072312534 -0.040855557 -0.05212532 0.026109718 0.08176985 -0.0032287454 -0.27813298
0.15769592 0.2507103 0.21917531 -0.18176776 0.011238879 -0.022191362 0.007662948 -0.15880899
0.108924836 0.004898597 0.18216348 -0.1860384 0.039235476 0.19204867 -0.104317255 -0.1604072
0.022832975 -0.019880045 0.29982865 -0.025995292 0.0018612063 0.022431195 0.22557257 -0.18424563
0.013327943 -0.020739911 -0.025769616 -0.011497666 -0.022362007 -0.22714591 0.10175962 0.10507382
0.09761815 -0.13128929 -0.0009459077 0.015770325 0.0018567806 -0.06395427 0.065645784 -0.018954106

arr_1 f4 [30]
00000000: 71b5 2ebc 4779 f9bc 2677 36bc 06eb 693d
00000010: 916a 85bc a42a 9cba 614e 373d 1747 203c
00000020: c98c 1d3d 2ece 8b3c 0fc3 87bc 95a4 78bc
00000030: f636 88bc e4e0 943c 680c b23c 3e12 82bc
00000040: 6a6c c23c bd83 ca3c 5770 8a3c 2e2b 163d
00000050: 2aae efbb 7e27 c23c 05fc 75bc 890f 9bbc
00000060: f430 6c3d 68e2 a43b 0f4f 69bc 681e bd3a
00000070: 1fe1 993c 4deb 673c
-0.010663376 -0.030453337 -0.011136806 0.0571089 -0.016286166 -0.0011914563 0.044752482 0.009782574
0.03846434 0.017066088 -0.016572503 -0.015175958 -0.01662777 0.018173642 0.021734431 -0.01587784
0.023733336 0.02472102 0.016899271 0.036662273 -0.007314463 0.023700472 -0.015013699 -0.018928306
0.057663873 0.0050318725 -0.01424004 0.0014428617 0.018784104 0.014155221

arr_2 f4 [30, 10]
00000000: 072e a83e 2140 81be 05f1 e13d a756 cf3e
00000010: bed6 a33e 5437 25be e01f 3b3e 243b 8c3e
00000020: aa42 593e 84ee 83be b703 5abe 62e1 87be
00000030: 1328 9ebe 145e df3e 3ca1 d53d f306 903e
00000040: b505 47be b81d 4e3e 91a9 583e bb6a 81be
00000050: b4fe 6c3c ffc8 a8be cb1e d33e 0844 163e
00000060: cc6c f53d 9396 cbbe c85f 763e fab2 893e
00000070: 3c1a 273e 3489 55be e1be ffbe 1aec c33e
00000080: e8b7 e3bd 3a80 31bd 48f5 dabe f3d3 49be
00000090: 1f19 49be e1d5 1b3e 8598 b8be 5066 c43d
000000a0: 258d 953d ea70 9ebe cf05 06be cf58 85be
000000b0: 823a 3fbe 782f ac3e 11ea 243e 7f3e 63bd
000000c0: c0d7 be3d 92e4 2d3b 8350 883e aac5 b4be
000000d0: afa4 39bf 2353 b23e c8ff cbbd 4de4 c6be
000000e0: 4d27 4abe 1617 a13e c984 01bf d3a3 9c3e
000000f0: 1ca1 bd3e 99ac ca3e 57fa 563e b399 49be
00000100: f949 24be 9cfb 53be ee46 a3be c255 0dbf
00000110: 666c cfbe 8865 b4be 07a3 c2be 5ddf ad3e
00000120: 0c9f 27bf 3215 ff3e bf58 933e 00d3 edbe
00000130: e467 ee3e 34cc 733e f178 e8be 7585 a5be
00000140: 9ea3 4cbe 3de5 063f 751b 103f f133 c63b
00000150: 3355 a3be 2651 d0be 8d86 10be 0e22 9ebe
00000160: 1acb a0be 98d3 99bd 62f7 c33e ad09 3bbf
00000170: d99b cc3e c0f4 7c3c 42dd 2ebf 4add 0ebf
00000180: b9da 413e 2961 04bf de4d d0be bd7e d43d
00000190: 232c b83c 6911 12be 7b8a f93c fa86 6bbb
000001a0: a0ad 853c 67b1 19be 3611 83be df37 b13e
000001b0: f41a ccbd f0a7 993e 262d c23b 5f95 1cbe
000001c0: fd2d 233d e68f b5be 2554 bbbe 55d5 373e
000001d0: 8117 2abe 0fc5 a4be c27c 033e 3c13 013e
000001e0: ddaf 473e c70a 15be edaa bcbe 2ade 1abc
000001f0: 7c06 a9bd 5925 33be 2b56 aa3e 8912 7dbe
00000200: 5d3c bdbc b9e7 acbc 2954 2bbf 499f f7be
00000210: 1f46 d63e 1350 dfbe b442 0f3f 2dd1 e1be
00000220: 7a7a 4bbf 72fc 0d3e a7e4 a4be 2335 b13e
00000230: 4e88 b33e 92e7 a13e ce7b dfbe 2fe6 d1be
00000240: 5631 f03e 8843 dfbe c184 11bf 9499 573e
00000250: 8c00 6d3e dab2 dabe 4e71 b8be b3b9 993e
00000260: 01c2 95be 357b 44be 48c6 9c3e 37fd 3dbe
00000270: 2bcf a43e df78 813e 2573 8a3d b8bd 893c
00000280: a4ea 523e 2779 033f 5798 1cbf a55a b6be
00000290: d297 26bf 0ff2 da3e 4fd5 32bf 8f3a 0a3f
000002a0: a703 99be a446 8a3d a591 a93c 8a4e 49bf
000002b0: 2037 c63e ff77 9b3e 4488 24bf be35 8c3e
000002c0: 726b 383e cd30 48be 1528 a3be 9193 56bf
000002d0: fc91 063f d513 be3e 2a1a ebbe e528 d7be
000002e0: b8d0 903e f151 82be 0db2 e23e 1623 1abf
000002f0: c546 533d 242a 0cbd ff21 953e 631e a73e
00000300: 4440 1abf a463 443e 5053 c7be 06b1 adbe
00000310: 3eb4 e2bb f940 21bf 52c6 a0be a7cf bf3e
00000320: dda9 1fbf 9caa 3bbf 5c87 303e 762c 8fbe
00000330: e92b ee3e b257 763e 8c6c 063f 2f19 b7be
00000340: 96b1 c5be f17e 003e af2b bebe a248 f4be
00000350: d1be ef3e b8d3 ca3e 0bff e23e b518 a2be
00000360: 4209 0dbf fd65 b4be 61c6 19bd abd6 fdbe
00000370: 63c8 71be a7e1 9bbe 1b40 86bd a6a1 92be
00000380: 09c8 933e 0072 a83e 3263 9e3d ae28 7c3e
00000390: 4d99 b93d d4ae afbe 291f 2f3e 183f a4be
000003a0: 2d87 21be 5bdc a43e 16f3 063e aa34 ba3e
000003b0: 9ab7 24bd 1243 e7bd c0e1 72be 8b24 203e
000003c0: 7c7c 463e 947a fc3e c96f 953e c8bb 83bd
000003d0: 9688 39bf 0b44 5e3e 35c8 2abf 0114 c23a
000003e0: c39c c2be 02dd 75be 293c f73e e066 59be
000003f0: 432b 80be b735 b6bd f597 75bd e4bb 55bd
0.32847616 -0.2524424 0.11032299 0.40495798 0.31999773 -0.16134387 0.18273878 0.2738887
0.21216837 -0.2576791 -0.2129048 -0.2653914 -0.3088995 0.43626463 0.10431144 0.28130302
-0.19435771 0.20128524 0.21158434 -0.2527674 0.014465023 -0.32965848 0.4123443 0.1467439
0.11983642 -0.39763317 0.24059975 0.2689436 0.16318601 -0.2085312 -0.49950317 0.3826607
-0.11119062 -0.043335177 -0.4276526 -0.19709758 -0.19638489 0.15218307 -0.36053863 0.09589827
0.07302312 -0.30945522 -0.13088153 -0.26044318 -0.18674663 0.33629966 0.16104914 -0.055479523
0.09318495 0.0026533944 0.26623926 -0.35307056 -0.7251691 0.34829053 -0.09960896 -0.38846055
-0.19741555 0.31462926 -0.5059324 0.30593738 0.3703698 0.39584807 0.20993935 -0.19687538
-0.16043843 -0.2070145 -0.31890053 -0.5520898 -0.4051239 -0.35233712 -0.38015005 0.33959475
-0.6547706 0.49820858 0.28778645 -0.46450043 0.46563637 0.23808366 -0.4540477 -0.32328382
-0.1998429 0.5269354 0.56291896 0.0060486724 -0.3190094 -0.4068691 -0.14113827 -0.30885357
-0.31404954 -0.075110614 0.38274676 -0.7306164 0.39962652 0.015439212 -0.6830636 -0.5580641
0.18931092 -0.51710755 -0.40684408 0.10375736 0.022481984 -0.14264454 0.03046154 -0.0035938607
0.016318142 -0.1500908 -0.25599068 0.3461294 -0.099660784 0.3001094 0.0059257923 -0.15291356
0.03983878 -0.35461348 -0.36587635 0.17952473 -0.16610529 -0.32181594 0.1284056 0.12604994
0.1950068 -0.14554892 -0.36849156 -0.009452382 -0.0825319 -0.17494716 0.33268866 -0.24714102
-0.023100073 -0.021106588 -0.66925293 -0.48363712 0.41850373 -0.4361578 0.55961156 -0.441049
-0.7948376 0.13865831 -0.32205698 0.34610853 0.3506493 0.31621987 -0.43649143 -0.4099593
0.4691264 -0.4360621 -0.5684319 0.21054679 0.2314474 -0.42714578 -0.36023945 0.3002449
-0.29249576 -0.19187625 0.30620027 -0.18553625 0.32189307 0.2528753 0.06760243 0.016814098
0.20597321 0.5135674 -0.6116995 -0.3561603 -0.6507541 0.427628 -0.69856733 0.53995603
-0.298856 0.06751755 0.020699332 -0.78635466 0.38713932 0.30364987 -0.64270425 0.27384752
0.18009737 -0.19549866 -0.31866518 -0.8381892 0.52566504 0.37124506 -0.459184 -0.42023388
0.2828424 -0.2545314 0.44276467 -0.60209787 0.051581163 -0.034219876 0.291275 0.3264037
-0.6025431 0.19178635 -0.3893075 -0.3392412 -0.006918459 -0.62989765 -0.31401306 0.37463114
-0.62368566 -0.73307204 0.17239136 -0.27963609 0.46517876 0.2405689 0.5250938 -0.357614
-0.3861205 0.12548424 -0.37142703 -0.47711664 0.4682527 0.39614654 0.44335207 -0.31659475
-0.5509225 -0.3523406 -0.037542704 -0.4957784 -0.23611598 -0.30445597 -0.06555196 -0.28638953
0.28863552 0.32899475 0.07733764 0.24624893 0.09062443 -0.3431307 0.1710173 -0.32079387
-0.15774222 0.32199368 0.13178667 0.36368304 -0.04021416 -0.112920895 -0.2371893 0.1563894
0.19383425 0.4931227 0.29186848 -0.06432301 -0.7247404 0.21705644 -0.6671174 0.0014806987
-0.38010225 -0.24010089 0.48288086 -0.2123065 -0.25033006 -0.08896964 -0.05995937 -0.05218114

arr_3 f4 [10]
00000000: bb54 e2bd 5922 c9bc 0375 61bd c3fd b13e
00000010: bf25 78bd 5dd2 d2bd daf4 033d 0c26 12be
00000020: bb3d 213e 81f2 0bbe
-0.11051317 -0.024552511 -0.05504323 0.34763917 -0.060582872 -0.1029403 0.03221593 -0.14272326
0.15746205 -0.13666727
